CsPbBr3/Nequip-r2SCAN_rVV10/melting_point_calculations/T750/best.pth (torch, 741528 bytes, 37 tensors)

scale_by f8 []
000000 3b a1 95 22 75 46 dd 3f
       0.4574253881205725

bessel_weights f4 [8]
000000 1f e0 d0 3f 51 47 a8 40 76 ac 0c 41 b8 3a 3e 41
       1.6318396 5.2587056 8.792105 11.889336
000010 6c 32 6f 41 53 ca 93 41 87 52 b3 41 0f 06 d4 41
       14.94981 18.473791 22.415297 26.502958

weight f4 [96]
000000 7a 23 e6 be b4 ec 0a bf 0c bf 88 bf 7a b2 c8 bd
       -0.4494894 -0.5426743 -1.0683303 -0.09799667
000010 9e 28 fa 3e 60 62 c8 3f f7 78 7c 3d c8 d4 04 bf
       0.48859113 1.5655022 0.0616388 -0.5188718
000020 ac b1 b0 3f e1 f1 db bf ae de 46 3f 77 7f e7 bf
       1.3804221 -1.718319 0.7768353 -1.8085774
000030 09 e1 c1 3c 7e 54 02 40 64 a4 d8 3e 07 5b 27 3f
       0.023666875 2.036407 0.4231292 0.6537327
000040 9e 8a a8 3d 54 c9 82 bf e2 14 d0 be e5 61 2d 3f
       0.08229564 -1.021769 -0.40640932 0.677275
000050 b9 38 e0 3f fa d2 a4 3f 5d 88 d1 3f 2c 1b 45 3d
       1.751731 1.2876885 1.636974 0.048121616
000060 df b4 b3 3e 07 ca 14 c0 3c 5d 8c 3f 6a 79 cb bf
       0.3509893 -2.3248308 1.0965953 -1.5896428
000070 92 9b c3 bf a2 38 eb 3e d1 36 0f bf 3e 19 16 c0
       -1.5281851 0.45941645 -0.5594302 -2.3452907
000080 15 8f 94 bf a3 9c 47 3f 92 f2 29 c0 2c 7c 0d bd
       -1.1606165 0.77973384 -2.6554303 -0.034542248
000090 0c a3 44 bf c7 88 a8 be 3f 92 99 bf 6c de 9d bf
       -0.7681129 -0.32916853 -1.1997756 -1.2333503
0000a0 d3 9d b1 3f ed 00 1a 40 6f 99 1a 3d 80 e3 13 be
       1.3876289 2.4063065 0.037743982 -0.14442253
0000b0 5d 85 9f be f7 67 db be cb dd 8f 3d 72 89 fb bf
       -0.31156436 -0.42852756 0.070247255 -1.965132
0000c0 29 60 a6 3f 5e 6c 0b 40 23 9d 12 c0 97 4c 73 3f
       1.2998096 2.1784892 -2.2908409 0.9503874
0000d0 d0 32 eb bf f5 fe 9f 3f 08 ff fa 3e f3 d6 9e 3c
       -1.8374882 1.2499682 0.49022698 0.019389605
0000e0 8e 28 1c 40 4f 73 36 bf ab 0e 4f bf e8 01 1a 40
       2.4399753 -0.71269697 -0.80881757 2.4063663
0000f0 de e2 90 bf 8e cb e3 bf f6 1f a4 3d 6f 71 6a 3e
       -1.1319234 -1.7796495 0.080139086 0.22894834
000100 37 94 91 3f 0e fe 0a 40 b5 46 bd 3d 67 0d 11 c0
       1.1373357 2.1717563 0.09242002 -2.266443
000110 43 58 0c bf 6e 3d 44 40 c9 4d 71 c0 14 61 96 3f
       -0.54822177 3.0662494 -3.7703726 1.1748376
000120 69 2e f2 3e 8d 2b a5 3f 5d 72 3b bf 62 32 85 3f
       0.47301033 1.2903916 -0.7322138 1.0406001
000130 49 a2 2a bf 9b 55 80 bf c9 8c 57 be 98 57 49 c0
       -0.6665388 -1.0026125 -0.21049799 -3.1459713
000140 12 a4 cb 3c bf 51 de bd c3 06 12 3f 2f ec 7c 3e
       0.024858508 -0.108554356 0.5704157 0.24699472
000150 41 26 b3 bf ac 02 1b 3c 3a 7b 39 bf c5 9a 01 c0
       -1.3996049 0.009461086 -0.72453654 -2.0250714
000160 67 10 1b c0 ee e0 5e bd c5 74 14 3f d5 ff 2c bd
       -2.4228761 -0.05441373 0.57990676 -0.042236168
000170 86 89 12 bd be ab 20 c0 b5 97 01 40 aa 1c b2 bf
       -0.035775684 -2.5104823 2.0248845 -1.3914998

output_mask f4 [32]
000000 00 00 80 3f 00 00 80 3f 00 00 80 3f 00 00 80 3f
       1.0 1.0 1.0 1.0
000010 00 00 80 3f 00 00 80 3f 00 00 80 3f 00 00 80 3f
       1.0 1.0 1.0 1.0
000020 00 00 80 3f 00 00 80 3f 00 00 80 3f 00 00 80 3f
       1.0 1.0 1.0 1.0
000030 00 00 80 3f 00 00 80 3f 00 00 80 3f 00 00 80 3f
       1.0 1.0 1.0 1.0
000040 00 00 80 3f 00 00 80 3f 00 00 80 3f 00 00 80 3f
       1.0 1.0 1.0 1.0
000050 00 00 80 3f 00 00 80 3f 00 00 80 3f 00 00 80 3f
       1.0 1.0 1.0 1.0
000060 00 00 80 3f 00 00 80 3f 00 00 80 3f 00 00 80 3f
       1.0 1.0 1.0 1.0
000070 00 00 80 3f 00 00 80 3f 00 00 80 3f 00 00 80 3f
       1.0 1.0 1.0 1.0

output_mask f4 [256]
000000 00 00 80 3f 00 00 80 3f 00 00 80 3f 00 00 80 3f
       1.0 1.0 1.0 1.0
000010 00 00 80 3f 00 00 80 3f 00 00 80 3f 00 00 80 3f
       1.0 1.0 1.0 1.0
000020 00 00 80 3f 00 00 80 3f 00 00 80 3f 00 00 80 3f
       1.0 1.0 1.0 1.0
000030 00 00 80 3f 00 00 80 3f 00 00 80 3f 00 00 80 3f
       1.0 1.0 1.0 1.0
000040 00 00 80 3f 00 00 80 3f 00 00 80 3f 00 00 80 3f
       1.0 1.0 1.0 1.0
000050 00 00 80 3f 00 00 80 3f 00 00 80 3f 00 00 80 3f
       1.0 1.0 1.0 1.0
000060 00 00 80 3f 00 00 80 3f 00 00 80 3f 00 00 80 3f
       1.0 1.0 1.0 1.0
000070 00 00 80 3f 00 00 80 3f 00 00 80 3f 00 00 80 3f
       1.0 1.0 1.0 1.0
000080 00 00 80 3f 00 00 80 3f 00 00 80 3f 00 00 80 3f
       1.0 1.0 1.0 1.0
000090 00 00 80 3f 00 00 80 3f 00 00 80 3f 00 00 80 3f
       1.0 1.0 1.0 1.0
0000a0 00 00 80 3f 00 00 80 3f 00 00 80 3f 00 00 80 3f
       1.0 1.0 1.0 1.0
0000b0 00 00 80 3f 00 00 80 3f 00 00 80 3f 00 00 80 3f
       1.0 1.0 1.0 1.0
0000c0 00 00 80 3f 00 00 80 3f 00 00 80 3f 00 00 80 3f
       1.0 1.0 1.0 1.0
0000d0 00 00 80 3f 00 00 80 3f 00 00 80 3f 00 00 80 3f
       1.0 1.0 1.0 1.0
0000e0 00 00 80 3f 00 00 80 3f 00 00 80 3f 00 00 80 3f
       1.0 1.0 1.0 1.0
0000f0 00 00 80 3f 00 00 80 3f 00 00 80 3f 00 00 80 3f
       1.0 1.0 1.0 1.0
000100 00 00 80 3f 00 00 80 3f 00 00 80 3f 00 00 80 3f
       1.0 1.0 1.0 1.0
000110 00 00 80 3f 00 00 80 3f 00 00 80 3f 00 00 80 3f
       1.0 1.0 1.0 1.0
000120 00 00 80 3f 00 00 80 3f 00 00 80 3f 00 00 80 3f
       1.0 1.0 1.0 1.0
000130 00 00 80 3f 00 00 80 3f 00 00 80 3f 00 00 80 3f
       1.0 1.0 1.0 1.0
000140 00 00 80 3f 00 00 80 3f 00 00 80 3f 00 00 80 3f
       1.0 1.0 1.0 1.0
000150 00 00 80 3f 00 00 80 3f 00 00 80 3f 00 00 80 3f
       1.0 1.0 1.0 1.0
000160 00 00 80 3f 00 00 80 3f 00 00 80 3f 00 00 80 3f
       1.0 1.0 1.0 1.0
000170 00 00 80 3f 00 00 80 3f 00 00 80 3f 00 00 80 3f
       1.0 1.0 1.0 1.0
000180 00 00 80 3f 00 00 80 3f 00 00 80 3f 00 00 80 3f
       1.0 1.0 1.0 1.0
000190 00 00 80 3f 00 00 80 3f 00 00 80 3f 00 00 80 3f
       1.0 1.0 1.0 1.0
0001a0 00 00 80 3f 00 00 80 3f 00 00 80 3f 00 00 80 3f
       1.0 1.0 1.0 1.0
0001b0 00 00 80 3f 00 00 80 3f 00 00 80 3f 00 00 80 3f
       1.0 1.0 1.0 1.0
0001c0 00 00 80 3f 00 00 80 3f 00 00 80 3f 00 00 80 3f
       1.0 1.0 1.0 1.0
0001d0 00 00 80 3f 00 00 80 3f 00 00 80 3f 00 00 80 3f
       1.0 1.0 1.0 1.0
0001e0 00 00 80 3f 00 00 80 3f 00 00 80 3f 00 00 80 3f
       1.0 1.0 1.0 1.0
0001f0 00 00 80 3f 00 00 80 3f 00 00 80 3f 00 00 80 3f
       1.0 1.0 1.0 1.0
000200 00 00 80 3f 00 00 80 3f 00 00 80 3f 00 00 80 3f
       1.0 1.0 1.0 1.0
000210 00 00 80 3f 00 00 80 3f 00 00 80 3f 00 00 80 3f
       1.0 1.0 1.0 1.0
000220 00 00 80 3f 00 00 80 3f 00 00 80 3f 00 00 80 3f
       1.0 1.0 1.0 1.0
000230 00 00 80 3f 00 00 80 3f 00 00 80 3f 00 00 80 3f
       1.0 1.0 1.0 1.0
000240 00 00 80 3f 00 00 80 3f 00 00 80 3f 00 00 80 3f
       1.0 1.0 1.0 1.0
000250 00 00 80 3f 00 00 80 3f 00 00 80 3f 00 00 80 3f
       1.0 1.0 1.0 1.0
000260 00 00 80 3f 00 00 80 3f 00 00 80 3f 00 00 80 3f
       1.0 1.0 1.0 1.0
000270 00 00 80 3f 00 00 80 3f 00 00 80 3f 00 00 80 3f
       1.0 1.0 1.0 1.0
000280 00 00 80 3f 00 00 80 3f 00 00 80 3f 00 00 80 3f
       1.0 1.0 1.0 1.0
000290 00 00 80 3f 00 00 80 3f 00 00 80 3f 00 00 80 3f
       1.0 1.0 1.0 1.0
0002a0 00 00 80 3f 00 00 80 3f 00 00 80 3f 00 00 80 3f
       1.0 1.0 1.0 1.0
0002b0 00 00 80 3f 00 00 80 3f 00 00 80 3f 00 00 80 3f
       1.0 1.0 1.0 1.0
0002c0 00 00 80 3f 00 00 80 3f 00 00 80 3f 00 00 80 3f
       1.0 1.0 1.0 1.0
0002d0 00 00 80 3f 00 00 80 3f 00 00 80 3f 00 00 80 3f
       1.0 1.0 1.0 1.0
0002e0 00 00 80 3f 00 00 80 3f 00 00 80 3f 00 00 80 3f
       1.0 1.0 1.0 1.0
0002f0 00 00 80 3f 00 00 80 3f 00 00 80 3f 00 00 80 3f
       1.0 1.0 1.0 1.0
000300 00 00 80 3f 00 00 80 3f 00 00 80 3f 00 00 80 3f
       1.0 1.0 1.0 1.0
000310 00 00 80 3f 00 00 80 3f 00 00 80 3f 00 00 80 3f
       1.0 1.0 1.0 1.0
000320 00 00 80 3f 00 00 80 3f 00 00 80 3f 00 00 80 3f
       1.0 1.0 1.0 1.0
000330 00 00 80 3f 00 00 80 3f 00 00 80 3f 00 00 80 3f
       1.0 1.0 1.0 1.0
000340 00 00 80 3f 00 00 80 3f 00 00 80 3f 00 00 80 3f
       1.0 1.0 1.0 1.0
000350 00 00 80 3f 00 00 80 3f 00 00 80 3f 00 00 80 3f
       1.0 1.0 1.0 1.0
000360 00 00 80 3f 00 00 80 3f 00 00 80 3f 00 00 80 3f
       1.0 1.0 1.0 1.0
000370 00 00 80 3f 00 00 80 3f 00 00 80 3f 00 00 80 3f
       1.0 1.0 1.0 1.0
000380 00 00 80 3f 00 00 80 3f 00 00 80 3f 00 00 80 3f
       1.0 1.0 1.0 1.0
000390 00 00 80 3f 00 00 80 3f 00 00 80 3f 00 00 80 3f
       1.0 1.0 1.0 1.0
0003a0 00 00 80 3f 00 00 80 3f 00 00 80 3f 00 00 80 3f
       1.0 1.0 1.0 1.0
0003b0 00 00 80 3f 00 00 80 3f 00 00 80 3f 00 00 80 3f
       1.0 1.0 1.0 1.0
0003c0 00 00 80 3f 00 00 80 3f 00 00 80 3f 00 00 80 3f
       1.0 1.0 1.0 1.0
0003d0 00 00 80 3f 00 00 80 3f 00 00 80 3f 00 00 80 3f
       1.0 1.0 1.0 1.0
0003e0 00 00 80 3f 00 00 80 3f 00 00 80 3f 00 00 80 3f
       1.0 1.0 1.0 1.0
0003f0 00 00 80 3f 00 00 80 3f 00 00 80 3f 00 00 80 3f
       1.0 1.0 1.0 1.0

weight f4 [1024]
000000 a1 22 1b c0 5e 68 d9 3d 07 04 2c c0 21 e7 c5 3e
       -2.4239886 0.106156096 -2.6877458 0.386529
000010 ea 56 00 3f 5b f7 10 c0 b5 7a 58 3e 39 68 d9 3f
       0.5013262 -2.2650974 0.21140559 1.6984931
000020 68 8d 89 3f 0e 7d cc 3f c9 d6 0a c0 b2 38 28 3e
       1.0746279 1.5975664 -2.1693594 0.16427878
000030 7d dc fd 3b e1 03 7c 3f 30 4e e6 bf fc 4c e0 3f
       0.0077472315 0.9844342 -1.7992611 1.7523494
000040 8f de 02 3f b6 46 46 3f d4 b5 6f 3f 8d 55 b1 3b
       0.5112085 0.77451646 0.9363682 0.00541181
000050 1a fc d0 3f b0 be 3a 40 29 26 e8 be 69 3a 85 bf
       1.6326935 2.9178886 -0.45341614 -1.040845
000060 04 19 d8 3f 9b 48 8e 3e de 13 80 3f 43 63 ab 3f
       1.6882634 0.2778977 1.0006063 1.3389667
000070 fb 32 4f 3b 50 0e d9 3f 38 43 61 bf 27 49 30 c0
       0.003161608 1.6957493 -0.8799319 -2.7544649
000080 c1 20 2d bf 69 7f 0c bf b2 c0 a4 bf 47 7a 30 bf
       -0.67628103 -0.5488191 -1.2871306 -0.6893658
000090 5b 1d 2d c0 81 81 a4 bf a2 47 13 c0 4f 2d 6c 40
       -2.7049167 -1.2852021 -2.3012471 3.6902654
0000a0 a4 b1 78 c0 e8 49 02 3e 49 64 21 c0 d9 2b c9 3f
       -3.8858423 0.12723505 -2.521746 1.5716506
0000b0 24 f3 5c 3f ea c8 98 3f 7c e1 83 bf d5 be 03 bf
       0.86308503 1.1936314 -1.0303187 -0.5146306
0000c0 13 90 95 3f 72 99 d9 3f 06 a7 6d 3f 33 d1 9c 3f
       1.1684593 1.6999953 0.9283298 1.2251343
0000d0 f1 ac 28 bf a1 2e 35 40 29 c3 fc 3f 29 62 ef 3f
       -0.6588889 2.830971 1.9747058 1.8701831
0000e0 08 a2 bc 3f 29 78 99 bf 67 b8 26 3f 84 1c 83 3f
       1.4736948 -1.1989795 0.65125126 1.0243077
0000f0 98 05 18 40 dc d6 93 3d 20 83 6b 40 35 c4 b2 bf
       2.3753414 0.072187155 3.6798782 -1.3966128
000100 04 ca 4f be 74 de 08 40 4c d5 f6 bf 57 c3 e9 3f
       -0.20291907 2.1385775 -1.9283843 1.8262738
000110 59 8c 82 bf 62 6e 2e c0 4e 98 be 3f 1c 44 06 3e
       -1.0199081 -2.7254872 1.489023 0.13111919
000120 88 5c 4b bf 77 5a 73 bf 9c 13 f4 be 57 e1 05 40
       -0.79438066 -0.95059913 -0.4767121 2.0918787
000130 3e e1 24 40 ca bb ff bd a0 4c 63 bf 68 26 af 40
       2.5762477 -0.1248699 -0.88788795 5.4734383
000140 da 34 e2 be 2e 31 42 3f 50 c1 2b bf c8 8a b0 3f
       -0.44180948 0.7585629 -0.67091846 1.3792353
000150 88 10 30 40 e3 a8 e9 3f 79 15 a3 3f db 25 bd bf
       2.751009 1.8254665 1.2740928 -1.4777178
000160 d9 9a 08 bf fb 77 e0 3f d6 c3 33 40 3a 5a 20 c0
       -0.5336128 1.7536615 2.8088279 -2.505507
000170 3a 0d 92 bf 77 87 a5 3f 5d 2e 8b 3e 37 40 f7 bf
       -1.1410286 1.2931966 0.2718381 -1.9316472
000180 29 1c 94 bf 3e 33 89 c0 fa 9f 30 be 3a 61 8d 3f
       -1.1571094 -4.287505 -0.17248526 1.1045296
000190 ca 53 92 3f 61 cf c2 3f 40 8a 4b bf 4b a8 5f c0
       1.143182 1.5219537 -0.7950783 -3.4946468
0001a0 0e 5c 41 40 37 6d 8c bd a5 38 03 40 f0 5b 90 3e
       3.0212436 -0.068567686 2.0503323 0.28195143
0001b0 e0 3c d6 be 7e 50 3d bf 82 3e ce bf b2 9e 35 3f
       -0.4184332 -0.73950946 -1.6112826 0.70945275
0001c0 d8 38 31 c0 54 ee be bf a1 0d ba bf 07 d1 78 bf
       -2.7690945 -1.4916482 -1.4535409 -0.9719395
0001d0 e3 48 ab 3f 83 cd df bf ec c8 00 bf 2a 13 a8 bf
       1.3381618 -1.7484592 -0.5030658 -1.3130848
0001e0 e1 32 11 c0 c2 5f d7 3e 97 6c 90 bf 87 1e b4 bf
       -2.2687304 0.42065245 -1.1283139 -1.4071816
0001f0 70 79 0a 3e ca 48 b7 3e 21 80 38 c0 b6 0b 8f 3f
       0.13522887 0.3579772 -2.8828204 1.1175449
000200 3c fa f1 3f 0a 7f 4c 3f 22 53 55 bf e4 5b cf bf
       1.890449 0.79881346 -0.83329976 -1.6199918
000210 5f 4d 8c 3f 84 7d 08 c0 c8 e3 c5 3f b8 fa 30 c0
       1.0961112 -2.1326609 1.5460138 -2.7653027
000220 f9 50 06 40 48 c9 76 bf 3e 86 ec be 84 12 e0 3e
       2.0986922 -0.9640088 -0.4619617 0.43764126
000230 23 e7 6c bf 8d 1f 29 3e ab de 73 bd 1e 5b 9a bf
       -0.92540187 0.16515942 -0.059538525 -1.2059057
000240 29 7b c7 be ec 84 65 be f4 e5 5c bf 6e d4 b6 3d
       -0.3896115 -0.22413987 -0.8628838 0.089272365
000250 8e 2e 3f 40 a2 f3 8c 3f 81 2a dd bf af 88 23 c0
       2.9872165 1.1011851 -1.7278596 -2.5552175
000260 90 22 dd bf f1 1a c7 3e f8 99 52 bf ee 1c 89 be
       -1.7276173 0.38887742 -0.8226619 -0.26779884
000270 5c 38 22 c0 88 c1 bc 3f 77 0b 0b c0 02 61 a3 be
       -2.53469 1.4746561 -2.1725748 -0.3190995
000280 62 7c 5f 3f 8f 2a 1d 40 ae 97 a3 bf fd 2b 9a c0
       0.8729917 2.4557226 -1.2780664 -4.8178697
000290 6e 08 f5 3e 3e 69 50 c0 fd 4b d7 bf 52 5f 01 40
       0.47857994 -3.2564235 -1.6820065 2.021443
0002a0 5a 30 4c c0 90 0f a3 bf 31 eb 87 c0 42 c1 95 3f
       -3.1904511 -1.2739124 -4.24746 1.1699603
0002b0 14 b6 75 3f 04 e3 21 3f 4b 3c 54 40 bd 7f 7b c0
       0.95980954 0.63237023 3.31618 -3.9296715
0002c0 95 6e 59 40 ca 12 3c 40 61 c5 e3 3f 96 b4 d2 be
       3.3973744 2.9386468 1.779461 -0.411534
0002d0 d4 31 98 bf 50 83 07 40 86 e2 5a bf df 1b a1 3d
       -1.1890206 2.1173897 -0.855019 0.07866644
0002e0 56 ef 61 3e c9 08 ac 3f ed e0 cc 3f f4 4e d1 3f
       0.22063956 1.3440181 1.6006142 1.635222
0002f0 fd bd 21 3f 19 fd e2 be 13 60 35 bc 7b 54 19 bd
       0.63180524 -0.44333723 -0.011070269 -0.037434082
000300 b5 59 d0 bd a8 35 2d c0 1e 21 d8 3f bd 6c c6 3d
       -0.1017336 -2.7064 1.6885107 0.09688709
000310 60 be 64 bf 4a 26 44 3f 51 4e 38 40 5f 9d 86 c0
       -0.8935299 0.76620924 2.87978 -4.2067103
000320 9e 03 2c 40 87 2e 10 bf 54 91 53 3f 08 60 8a bf
       2.6877208 -0.56320995 0.8264363 -1.0810556
000330 d6 68 f9 be 8b 53 e6 bf 64 20 8b bf 44 aa 83 3e
       -0.48712796 -1.7994245 -1.086926 0.2571584
000340 9b 8d 28 c0 69 92 ed bd 10 44 f0 bf 2a d8 90 be
       -2.633643 -0.11600191 -1.8770771 -0.2828992
000350 71 48 83 3f 11 44 3b c0 81 0e fd bf 27 9c 46 c0
       1.0256482 -2.9260294 -1.9770051 -3.1032808
000360 74 ae 8c bf a9 9c 77 3e 3a d2 6c be 49 ff 23 c0
       -1.0990739 0.24180855 -0.2312707 -2.5624564
000370 49 19 9b bf 16 48 cb 3f 32 2f 91 c0 2c b1 b5 3f
       -1.2117091 1.5881374 -4.537011 1.4194694
000380 63 c8 66 be 7a 1b 05 3f ed 83 1c c0 6b fb b1 3d
       -0.22537379 0.5199505 -2.445552 0.08690532
000390 40 e2 05 bf f8 b7 df bf cb 7c 0f c0 86 ee b0 3e
       -0.52298355 -1.7478018 -2.2419918 0.3455698
0003a0 cc 52 1c bf df 09 60 3f 08 69 43 c0 5f 17 1d 40
       -0.6106384 0.8751506 -3.0532856 2.4545515
0003b0 fe ca 6f 40 25 c6 5a 3f be 7d e8 be cd 6b bc 3f
       3.7467647 0.85458595 -0.45408434 1.4720398
0003c0 55 9d 0e 40 17 0f 8d 3f 79 8e 25 bf ec 37 8e 3f
       2.2283528 1.102023 -0.6467052 1.1110816
0003d0 f3 59 dd 3f f4 04 0b 40 1d 86 78 3f d2 e5 f9 be
       1.7293075 2.1721773 0.9707964 -0.4880815
0003e0 04 08 28 3f 0a 67 aa 3e 32 17 61 40 1a 5f 7d bf
       0.6563723 0.33281738 3.5170407 -0.9897324
0003f0 fe 38 65 3f b0 02 52 bf ed 66 12 3f 9e b2 08 bf
       0.8954009 -0.8203535 0.571883 -0.5339755

output_mask f4 [32]
000000 00 00 80 3f 00 00 80 3f 00 00 80 3f 00 00 80 3f
       1.0 1.0 1.0 1.0
000010 00 00 80 3f 00 00 80 3f 00 00 80 3f 00 00 80 3f
       1.0 1.0 1.0 1.0
000020 00 00 80 3f 00 00 80 3f 00 00 80 3f 00 00 80 3f
       1.0 1.0 1.0 1.0
000030 00 00 80 3f 00 00 80 3f 00 00 80 3f 00 00 80 3f
       1.0 1.0 1.0 1.0
000040 00 00 80 3f 00 00 80 3f 00 00 80 3f 00 00 80 3f
       1.0 1.0 1.0 1.0
000050 00 00 80 3f 00 00 80 3f 00 00 80 3f 00 00 80 3f
       1.0 1.0 1.0 1.0
000060 00 00 80 3f 00 00 80 3f 00 00 80 3f 00 00 80 3f
       1.0 1.0 1.0 1.0
000070 00 00 80 3f 00 00 80 3f 00 00 80 3f 00 00 80 3f
       1.0 1.0 1.0 1.0

weight f4 [8, 8]
000000 e3 e8 3d 3f 57 c7 0a c1 e8 aa 5f c0 4b e1 5c 3f
       0.7418348 -8.673667 -3.4948063 0.8628127
000010 7a 86 80 40 00 c5 cb 3e da 13 c5 bf 8e 1c 56 3f
       4.0164156 0.39798737 -1.5396683 0.8363732
000020 71 4f 96 40 01 11 0a 3f cd 6a 8e bf e0 2e b7 bf
       4.6971974 0.53932196 -1.1126343 -1.431118
000030 af 50 d6 bf fa 34 87 3f 5a f8 bb c0 6f 54 08 40
       -1.6743373 1.0563042 -5.8740664 2.1301534
000040 57 44 81 40 e6 14 af 3f 97 3f 1d 40 d7 ac 20 bf
       4.0395923 1.3678253 2.4570062 -0.6276373
000050 a5 51 07 40 63 8a 5b 40 5d dc ce 3f 6b 22 07 40
       2.1143582 3.4303215 1.6161 2.1114757
000060 0a d4 65 bf 51 c4 8d 3c 9a 21 1f 40 5e e8 bc 3e
       -0.8977667 0.017305525 2.4864259 0.36896032
000070 94 44 24 c0 cf 27 36 3e 2c 77 1b 40 ee c3 48 40
       -2.5666857 0.17788623 2.4291487 3.1369586
000080 72 1e 3e c0 5e b8 b0 3e 3e 3d 81 3e ed 7f 3f c0
       -2.9706082 0.3451566 0.25242037 -2.992183
000090 a3 ca 44 bf 1c 71 10 3e 67 ae b8 3f 49 13 43 bf
       -0.768717 0.14105648 1.4428223 -0.762013
0000a0 4d 22 74 c0 54 79 54 bf 99 c4 bf 3f e9 a5 11 3f
       -3.8145936 -0.8299763 1.4981872 0.56893784
0000b0 ba 7b 15 bf 4f e9 84 3e 93 4a da bf a4 d6 d1 bf
       -0.58391917 0.2595925 -1.7054008 -1.6393628
0000c0 f8 38 0e 3d 68 51 67 bf 5b a5 16 bf 60 81 34 3f
       0.0347223 -0.9035859 -0.5884606 0.7050991
0000d0 3f a8 fa be ed 8f 0d c0 2b 60 3a 3f 22 90 37 c0
       -0.48956487 -2.2119095 0.7280299 -2.8681722
0000e0 29 b7 c6 3d a9 8c 2d bf 5b d3 90 3f b0 00 e1 be
       0.09702904 -0.67792755 1.13145 -0.43945837
0000f0 7a 09 52 3f ac 3d 03 c0 51 a3 16 be 8a 33 ff be
       0.8204571 -2.0506392 -0.14710738 -0.4984401

weight f4 [8, 96]
000000 22 99 79 3f 14 d6 f5 3f ca cc 5b bf a1 da 26 c0
       0.9749929 1.9205956 -0.8585936 -2.607094
000010 45 c4 e7 3f 84 d4 bf be 2c a6 82 bf 8a 5b 36 c0
       1.8106772 -0.37466824 -1.0206962 -2.849337
000020 bc 73 49 c0 05 92 97 3f 92 39 06 c0 3e f9 2d c0
       -3.1476889 1.1841437 -2.0972638 -2.7183375
000030 5d b0 1f 3f 96 52 71 bd 91 04 41 3f 28 f2 a0 40
       0.62378484 -0.05891665 0.7539759 5.02956
000040 79 7d b8 3f 4d 0e 49 40 47 6f 21 bf c9 74 dc bf
       1.4413291 3.1414979 -0.6306042 -1.722314
000050 2c f3 ee 3f 04 3a bd bd aa 6f 2f 3e 63 96 f9 bd
       1.866796 -0.09239581 0.1713244 -0.12186887
000060 39 21 f4 be 34 c7 0c bc 46 12 b1 3e c5 9a 5b 40
       -0.47681597 -0.008592416 0.34584254 3.4313214
000070 cb 51 77 3f b9 46 79 40 07 c6 d3 bd 4a b7 df be
       0.9660918 3.8949416 -0.10340505 -0.43694526
000080 3b b6 15 3f 11 87 3b c0 1f 95 de bf f3 81 db bf
       0.58481187 -2.9301188 -1.7389258 -1.7149032
000090 3d e2 e1 3f e7 b5 73 c0 f1 e6 59 3f 23 1a 1d c0
       1.7647167 -3.8079774 0.85118014 -2.4547203
0000a0 00 68 ae bf 1c 98 2e c0 96 09 17 c0 a4 f8 a1 bf
       -1.3625488 -2.728034 -2.35996 -1.2654004
0000b0 b6 26 e6 3f 48 5d 9b 3f 5b 72 d5 3d 41 ba ea 3f
       1.7980564 1.2137842 0.10422202 1.833809
0000c0 11 32 88 3d 12 c3 bb 3f c0 48 9b bf b3 8c fa 3f
       0.066501744 1.4668906 -1.2131577 1.9574188
0000d0 17 e6 ce bd 7e 55 3e 3f ff 65 97 bf 8e f5 ba 3f
       -0.1010248 0.743492 -1.1828002 1.4606187
0000e0 5b fa d9 3f 50 cb 85 bf 0c e8 80 3e d1 1e e3 bf
       1.7029527 -1.0452671 0.25177038 -1.774378
0000f0 f7 a2 e5 3f 04 fe a9 3f 9a 65 39 bd 3c 9d 2b 40
       1.7940358 1.3280644 -0.04526291 2.6814718
000100 1f 1b 10 bf 3d 2d 92 bf 5e cb 8f 3f c4 8b 96 40
       -0.56291384 -1.1420056 1.1233938 4.704561
000110 1e bb 96 bf 37 ce 8c 3e 34 3c 3a bf 05 08 9b be
       -1.1775854 0.2750108 -0.7274811 -0.30279556
000120 33 00 8c bf c3 7b 98 be 27 81 ca 3e 33 57 cd bf
       -1.0937561 -0.29781923 0.3955166 -1.6042236
000130 61 6b 27 c0 a0 1a e7 3f 67 d9 8b 3f d2 17 28 40
       -2.615929 1.8055 1.0925721 2.6264539
000140 f5 4e 6f 3f 9c 17 ca bf 66 13 ea 3f 58 5f 31 c0
       0.93479854 -1.5788455 1.828717 -2.7714443
000150 b9 3b dc bf 7c 93 8d bd b5 f9 90 be 9a 09 42 bf
       -1.7205726 -0.06912896 -0.2831551 -0.757959
000160 da 38 a3 3f 27 b7 4c c0 66 6c ad be 54 13 b8 3f
       1.2751725 -3.1986787 -0.33871764 1.4380898
000170 16 cb 77 3f 4d 6d 51 3f d8 3b a6 3f 70 ee a6 3f
       0.9679426 0.81807405 1.2987013 1.3041515
000180 9b 61 39 bf b5 6f 04 3f 07 e1 1b c0 8a 53 2d 3d
       -0.7241456 0.5173295 -2.4356096 0.042315997
000190 82 88 e8 3f ed 30 55 c0 7e c8 c1 3e 95 65 08 40
       1.8166659 -3.3311112 0.37848276 2.1312
0001a0 26 74 47 3f 6d 4a 96 3e 92 c9 9f bf 42 c1 60 bf
       0.77911603 0.29353657 -1.2483389 -0.8779489
0001b0 5e 54 6d be 5e 01 a5 bf 3e a8 1b 40 da f0 57 bf
       -0.23176715 -1.2891042 2.4321437 -0.84351885
0001c0 79 51 00 c0 ab cb 97 bf a1 76 34 40 f4 d8 56 3e
       -2.0049727 -1.185903 2.8197405 0.20981199
0001d0 a6 20 eb 3f 1f 0c 80 c0 9c c3 1f 40 61 4b ff 3f
       1.8369339 -4.0014796 2.496314 1.9944879
0001e0 52 3e f3 bf d7 97 9c c0 94 57 0e c0 20 47 66 3f
       -1.9003394 -4.893535 -2.2240953 0.8995228
0001f0 09 80 a9 3f 08 e8 02 bf 82 aa f4 40 2d b8 10 3f
       1.3242198 -0.511353 7.645814 0.5653103
000200 8f ac f5 bf 5b 68 66 3f 32 28 08 40 36 04 ef 3f
       -1.9193286 0.90002984 2.1274533 1.867316
000210 f3 0d f6 bd 2e 9d 80 3f b3 c8 41 40 c7 86 3c bf
       -0.12014379 1.0047967 3.0278747 -0.73643154
000220 be 4e f8 bf 81 21 40 3f 32 61 ea bf 86 88 ed 3f
       -1.939903 0.7505112 -1.8310912 1.8557289
000230 a2 e0 c6 3f cf 1a 9b be d6 c5 4e 3f 8a 08 3a 40
       1.5537302 -0.3029389 0.80770624 2.9067712
000240 31 fa a1 40 0c 7e c4 bf a1 00 c9 bf d8 9e 12 40
       5.061791 -1.5350966 -1.5703317 2.290945
000250 e4 36 e2 3e 72 fe 1e 40 80 20 94 c0 60 1a 1f c0
       0.44182503 2.48428 -4.6289673 -2.4859848
000260 43 dd f1 bf c6 b8 46 40 34 f3 fc bf f0 3b c8 3f
       -1.8895649 3.1050277 -1.976172 1.5643291
000270 ec f8 74 40 51 cd 53 40 d7 08 4d 40 44 6e 8c 3f
       3.827693 3.3094065 3.2036645 1.097115
000280 71 09 04 40 65 ec fa bf 31 a9 30 40 19 a2 b7 bf
       2.0630763 -1.9603392 2.7603266 -1.4346343
000290 52 b5 92 3f 40 2c 42 c0 49 34 f0 bf 8d 63 4b 3f
       1.1461585 -3.0339508 -1.8765956 0.7944878
0002a0 57 16 7a c0 56 d1 63 3f ca fa 6b bf 37 e6 32 3f
       -3.9076135 0.88991296 -0.9217955 0.6988253
0002b0 07 d1 95 be c5 f7 45 3f f3 25 7c 3f a1 ae 24 c0
       -0.29261038 0.7733119 0.98495406 -2.5731585
0002c0 6b 78 31 bf 38 25 da bf 5d 94 24 c0 73 9e 9a bf
       -0.6932437 -1.7042608 -2.5715554 -1.2079605
0002d0 a0 29 ca bf 49 26 59 bf cf c9 bb bd a6 b4 34 c0
       -1.5793953 -0.84824044 -0.09169351 -2.823526
0002e0 e2 af 36 3f 5c 1a 7b bf cc 76 a8 bf c8 96 47 40
       0.71362126 -0.98087096 -1.3161254 3.118578
0002f0 38 57 97 3e 09 2b c4 bf aa d5 39 3f d2 4b 3f c0
       0.2955873 -1.5325633 0.7259165 -2.9890027
000300 08 4f f4 bf 1c 37 4b 40 b9 75 c1 3f 11 17 c7 3e
       -1.9086618 3.1752386 1.5114051 0.38884786
000310 6f f1 d0 3f 1e c0 c9 bf 46 4e eb 3f 2d d8 63 40
       1.632368 -1.5761755 1.8383262 3.5600693
000320 ea de f3 bf 42 1c 29 3f 88 81 30 40 cf 70 42 bf
       -1.9052403 0.66058743 2.757906 -0.7595338
000330 f9 f4 e8 bf 08 70 99 bf 12 8a 36 c0 b3 89 b4 bf
       -1.819976 -1.1987314 -2.8521771 -1.4104522
000340 69 a4 b3 3f 80 04 d9 bf df bf 54 3f c4 36 ff be
       1.4034549 -1.6954498 0.8310527 -0.4984647
000350 84 c9 d7 3f 94 bc 12 c0 37 e3 15 40 b4 58 59 3f
       1.6858373 -2.29276 2.341993 0.84900975
000360 af f0 1b be 42 ff 80 bd 34 9b d4 3e e5 6b 9f c0
       -0.15228532 -0.062986866 0.4152466 -4.9819207
000370 e7 13 27 40 58 2a e7 3f 1d dd 3b 3f ff f2 c8 be
       2.6105897 1.8059797 0.7338427 -0.3924789
000380 37 1a e3 bf 1c 82 34 c0 b3 47 89 3e e1 80 a6 40
       -1.7742375 -2.8204412 0.26812515 5.2032323
000390 02 01 fa be 89 03 a5 3f 81 5b 6e 40 82 41 24 40
       -0.48828894 1.2891704 3.724335 2.5664983
0003a0 e9 16 b9 3f 27 f0 02 bf e2 3e e9 3e ab f7 ec 3e
       1.4460117 -0.51147693 0.45555788 0.46282706
0003b0 59 f4 76 be db d0 a6 bf 33 e9 96 bf 47 b0 b9 3f
       -0.24116649 -1.3032488 -1.1789917 1.450692
0003c0 47 a6 19 3f e6 52 e9 bf b3 e3 99 3f 51 4a 05 c0
       0.60019344 -1.8228424 1.2022613 -2.082661
0003d0 b7 3b 4b 40 63 18 c1 bf be 67 0c 3f 88 40 06 bf
       3.1755197 -1.5085567 0.548458 -0.52442217
0003e0 2a 16 9b bf d8 90 16 40 ec 31 10 c0 5d c4 f0 3f
       -1.2116139 2.3525906 -2.253047 1.8809925
0003f0 d2 0c d0 3f ac 16 fd 3f e8 89 00 40 d5 0a 9a bf
       1.6253912 1.9772544 2.0084171 -1.2034556

output_mask f4 [288]
000000 00 00 80 3f 00 00 80 3f 00 00 80 3f 00 00 80 3f
       1.0 1.0 1.0 1.0
000010 00 00 80 3f 00 00 80 3f 00 00 80 3f 00 00 80 3f
       1.0 1.0 1.0 1.0
000020 00 00 80 3f 00 00 80 3f 00 00 80 3f 00 00 80 3f
       1.0 1.0 1.0 1.0
000030 00 00 80 3f 00 00 80 3f 00 00 80 3f 00 00 80 3f
       1.0 1.0 1.0 1.0
000040 00 00 80 3f 00 00 80 3f 00 00 80 3f 00 00 80 3f
       1.0 1.0 1.0 1.0
000050 00 00 80 3f 00 00 80 3f 00 00 80 3f 00 00 80 3f
       1.0 1.0 1.0 1.0
000060 00 00 80 3f 00 00 80 3f 00 00 80 3f 00 00 80 3f
       1.0 1.0 1.0 1.0
000070 00 00 80 3f 00 00 80 3f 00 00 80 3f 00 00 80 3f
       1.0 1.0 1.0 1.0
000080 00 00 80 3f 00 00 80 3f 00 00 80 3f 00 00 80 3f
       1.0 1.0 1.0 1.0
000090 00 00 80 3f 00 00 80 3f 00 00 80 3f 00 00 80 3f
       1.0 1.0 1.0 1.0
0000a0 00 00 80 3f 00 00 80 3f 00 00 80 3f 00 00 80 3f
       1.0 1.0 1.0 1.0
0000b0 00 00 80 3f 00 00 80 3f 00 00 80 3f 00 00 80 3f
       1.0 1.0 1.0 1.0
0000c0 00 00 80 3f 00 00 80 3f 00 00 80 3f 00 00 80 3f
       1.0 1.0 1.0 1.0
0000d0 00 00 80 3f 00 00 80 3f 00 00 80 3f 00 00 80 3f
       1.0 1.0 1.0 1.0
0000e0 00 00 80 3f 00 00 80 3f 00 00 80 3f 00 00 80 3f
       1.0 1.0 1.0 1.0
0000f0 00 00 80 3f 00 00 80 3f 00 00 80 3f 00 00 80 3f
       1.0 1.0 1.0 1.0
000100 00 00 80 3f 00 00 80 3f 00 00 80 3f 00 00 80 3f
       1.0 1.0 1.0 1.0
000110 00 00 80 3f 00 00 80 3f 00 00 80 3f 00 00 80 3f
       1.0 1.0 1.0 1.0
000120 00 00 80 3f 00 00 80 3f 00 00 80 3f 00 00 80 3f
       1.0 1.0 1.0 1.0
000130 00 00 80 3f 00 00 80 3f 00 00 80 3f 00 00 80 3f
       1.0 1.0 1.0 1.0
000140 00 00 80 3f 00 00 80 3f 00 00 80 3f 00 00 80 3f
       1.0 1.0 1.0 1.0
000150 00 00 80 3f 00 00 80 3f 00 00 80 3f 00 00 80 3f
       1.0 1.0 1.0 1.0
000160 00 00 80 3f 00 00 80 3f 00 00 80 3f 00 00 80 3f
       1.0 1.0 1.0 1.0
000170 00 00 80 3f 00 00 80 3f 00 00 80 3f 00 00 80 3f
       1.0 1.0 1.0 1.0
000180 00 00 80 3f 00 00 80 3f 00 00 80 3f 00 00 80 3f
       1.0 1.0 1.0 1.0
000190 00 00 80 3f 00 00 80 3f 00 00 80 3f 00 00 80 3f
       1.0 1.0 1.0 1.0
0001a0 00 00 80 3f 00 00 80 3f 00 00 80 3f 00 00 80 3f
       1.0 1.0 1.0 1.0
0001b0 00 00 80 3f 00 00 80 3f 00 00 80 3f 00 00 80 3f
       1.0 1.0 1.0 1.0
0001c0 00 00 80 3f 00 00 80 3f 00 00 80 3f 00 00 80 3f
       1.0 1.0 1.0 1.0
0001d0 00 00 80 3f 00 00 80 3f 00 00 80 3f 00 00 80 3f
       1.0 1.0 1.0 1.0
0001e0 00 00 80 3f 00 00 80 3f 00 00 80 3f 00 00 80 3f
       1.0 1.0 1.0 1.0
0001f0 00 00 80 3f 00 00 80 3f 00 00 80 3f 00 00 80 3f
       1.0 1.0 1.0 1.0
000200 00 00 80 3f 00 00 80 3f 00 00 80 3f 00 00 80 3f
       1.0 1.0 1.0 1.0
000210 00 00 80 3f 00 00 80 3f 00 00 80 3f 00 00 80 3f
       1.0 1.0 1.0 1.0
000220 00 00 80 3f 00 00 80 3f 00 00 80 3f 00 00 80 3f
       1.0 1.0 1.0 1.0
000230 00 00 80 3f 00 00 80 3f 00 00 80 3f 00 00 80 3f
       1.0 1.0 1.0 1.0
000240 00 00 80 3f 00 00 80 3f 00 00 80 3f 00 00 80 3f
       1.0 1.0 1.0 1.0
000250 00 00 80 3f 00 00 80 3f 00 00 80 3f 00 00 80 3f
       1.0 1.0 1.0 1.0
000260 00 00 80 3f 00 00 80 3f 00 00 80 3f 00 00 80 3f
       1.0 1.0 1.0 1.0
000270 00 00 80 3f 00 00 80 3f 00 00 80 3f 00 00 80 3f
       1.0 1.0 1.0 1.0
000280 00 00 80 3f 00 00 80 3f 00 00 80 3f 00 00 80 3f
       1.0 1.0 1.0 1.0
000290 00 00 80 3f 00 00 80 3f 00 00 80 3f 00 00 80 3f
       1.0 1.0 1.0 1.0
0002a0 00 00 80 3f 00 00 80 3f 00 00 80 3f 00 00 80 3f
       1.0 1.0 1.0 1.0
0002b0 00 00 80 3f 00 00 80 3f 00 00 80 3f 00 00 80 3f
       1.0 1.0 1.0 1.0
0002c0 00 00 80 3f 00 00 80 3f 00 00 80 3f 00 00 80 3f
       1.0 1.0 1.0 1.0
0002d0 00 00 80 3f 00 00 80 3f 00 00 80 3f 00 00 80 3f
       1.0 1.0 1.0 1.0
0002e0 00 00 80 3f 00 00 80 3f 00 00 80 3f 00 00 80 3f
       1.0 1.0 1.0 1.0
0002f0 00 00 80 3f 00 00 80 3f 00 00 80 3f 00 00 80 3f
       1.0 1.0 1.0 1.0
000300 00 00 80 3f 00 00 80 3f 00 00 80 3f 00 00 80 3f
       1.0 1.0 1.0 1.0
000310 00 00 80 3f 00 00 80 3f 00 00 80 3f 00 00 80 3f
       1.0 1.0 1.0 1.0
000320 00 00 80 3f 00 00 80 3f 00 00 80 3f 00 00 80 3f
       1.0 1.0 1.0 1.0
000330 00 00 80 3f 00 00 80 3f 00 00 80 3f 00 00 80 3f
       1.0 1.0 1.0 1.0
000340 00 00 80 3f 00 00 80 3f 00 00 80 3f 00 00 80 3f
       1.0 1.0 1.0 1.0
000350 00 00 80 3f 00 00 80 3f 00 00 80 3f 00 00 80 3f
       1.0 1.0 1.0 1.0
000360 00 00 80 3f 00 00 80 3f 00 00 80 3f 00 00 80 3f
       1.0 1.0 1.0 1.0
000370 00 00 80 3f 00 00 80 3f 00 00 80 3f 00 00 80 3f
       1.0 1.0 1.0 1.0
000380 00 00 80 3f 00 00 80 3f 00 00 80 3f 00 00 80 3f
       1.0 1.0 1.0 1.0
000390 00 00 80 3f 00 00 80 3f 00 00 80 3f 00 00 80 3f
       1.0 1.0 1.0 1.0
0003a0 00 00 80 3f 00 00 80 3f 00 00 80 3f 00 00 80 3f
       1.0 1.0 1.0 1.0
0003b0 00 00 80 3f 00 00 80 3f 00 00 80 3f 00 00 80 3f
       1.0 1.0 1.0 1.0
0003c0 00 00 80 3f 00 00 80 3f 00 00 80 3f 00 00 80 3f
       1.0 1.0 1.0 1.0
0003d0 00 00 80 3f 00 00 80 3f 00 00 80 3f 00 00 80 3f
       1.0 1.0 1.0 1.0
0003e0 00 00 80 3f 00 00 80 3f 00 00 80 3f 00 00 80 3f
       1.0 1.0 1.0 1.0
0003f0 00 00 80 3f 00 00 80 3f 00 00 80 3f 00 00 80 3f
       1.0 1.0 1.0 1.0

weight f4 [5120]
000000 81 b0 41 c0 cf b4 8b 3d 4b c5 3f 3f ac 15 1f 40
       -3.026398 0.06821596 0.7491042 2.4856977
000010 57 3b e8 bf d9 42 77 c0 5d d8 c5 3f 1b 4e 3e bf
       -1.8143109 -3.863455 1.5456654 -0.7433793
000020 12 21 89 bf 9c 85 40 3d 15 34 93 3e 2c 21 6a bf
       -1.0713217 0.04700242 0.28750673 -0.91456866
000030 6d a0 9d 3f 84 aa 23 3f 13 e6 52 bf 6d 75 38 c0
       1.2314583 0.6393206 -0.82382315 -2.882167
000040 25 75 0e bf d0 44 0d 40 d8 2e 12 be 60 08 99 bf
       -0.556475 2.207325 -0.14275682 -1.1955681
000050 ce 80 3a c0 47 a4 52 3f 03 19 f1 3e c8 b6 d4 3e
       -2.9141116 0.8228192 0.47089395 0.415457
000060 99 f0 a4 3f 7b a0 30 3d 9b a7 f0 3f 8c 31 e7 3f
       1.2885925 0.043121796 1.8801149 1.8061996
000070 7e 12 81 c0 4c 6c 9c 3f a1 79 78 3e 77 81 29 c0
       -4.0335073 1.222055 0.24265148 -2.648527
000080 a4 a6 ac be c6 66 9c c0 1f 73 f9 3f dd 9a ef 3f
       -0.33720887 -4.8875456 1.9488257 1.8719136
000090 5e a0 93 3f ef 77 b3 40 0a f4 d1 bf 49 6d 39 c0
       1.1533315 5.6083903 -1.64026 -2.8972952
0000a0 7a 1a 8e c0 fb 17 53 bd 78 88 90 3f 26 a0 93 40
       -4.440732 -0.05153654 1.1291647 4.6132994
0000b0 5e ba 25 c0 23 44 ee 3f 4a 0a 26 40 28 f9 3f c0
       -2.5895 1.8614544 2.594378 -2.9995823
0000c0 fa a4 a7 be 31 fb 23 3e bf 9a 8d bf 65 c0 dc 3f
       -0.32743055 0.1601379 -1.106285 1.7246214
0000d0 8a ec 8c be ef 11 b2 3d 5b 04 9a bf 6c 01 41 40
       -0.27524215 0.08694827 -1.2032579 3.0157118
0000e0 7f a4 d4 40 43 c8 42 bf 26 81 f4 bf 67 a2 45 40
       6.64508 -0.76086825 -1.9101913 3.0880373
0000f0 ed 1d 2a c0 c6 21 50 40 b6 90 94 3e 10 e9 eb 3e
       -2.6580765 3.2520614 0.29016656 0.4607625
000100 b8 b3 b0 bf 40 84 d5 3e 40 42 99 bf 45 83 9c bf
       -1.3804846 0.4170246 -1.1973343 -1.222756
000110 90 31 01 c0 53 04 11 40 60 2e 12 be 03 82 8c 3e
       -2.01865 2.265889 -0.14275503 0.2744294
000120 1c 2e 0c bf a5 f7 39 3e 30 c9 20 40 b5 34 a3 40
       -0.5475786 0.18160875 2.5122795 5.100184
000130 17 5f f4 bf 74 ba 0f 3e fe f5 02 3f 5a ad 94 3d
       -1.9091519 0.1403597 0.51156604 0.07259627
000140 e7 6a 8c bf 03 b6 4f 3f f1 53 26 40 7f e4 ad bf
       -1.0970124 0.811371 2.5988734 -1.3585356
000150 46 ea 0f 40 b6 03 bb 3f 0d aa ff be 9f e3 0a 3f
       2.248674 1.4610507 -0.49934426 0.5425357
000160 7f e1 3c bf f2 e7 81 c0 cc 76 ea bf 00 37 3e 40
       -0.7378158 -4.0595636 -1.8317504 2.972107
000170 94 d3 b5 bf 54 c5 6f 3c 6d 23 1d bf 9a e9 04 40
       -1.4205194 0.014634449 -0.6138218 2.076758
000180 3a f4 a6 bf cd e7 07 bf 0f 5f 24 c0 ff 40 1a 40
       -1.3043282 -0.53088075 -2.568302 2.410217
000190 12 3f 91 c0 18 dd 7d 3f ea 06 5f c0 77 f6 43 3f
       -4.538949 0.9916549 -3.484797 0.7654795
0001a0 9f 2a 06 bf 8b a7 68 bf ca cb 2b c0 b7 bf 7f 3e
       -0.52408785 -0.9088065 -2.6843133 0.24975477
0001b0 5c 73 6f 40 2d 6b cf 3e d7 8b 78 3f 12 18 0e 40
       3.741416 0.40511456 0.9708838 2.2202191
0001c0 70 ad a5 3f 47 74 02 3f 85 c0 0b 40 17 04 f1 be
       1.2943554 0.50958675 2.1836255 -0.47073433
0001d0 be 19 db 3f 31 d9 ed 3e 29 58 87 bf 54 ef ce 3f
       1.7117231 0.46454766 -1.0573779 1.6166787
0001e0 51 6d cc 3f fb 8b 46 bb 3c 7b 5b 40 d8 e7 b3 bf
       1.5970861 -0.0030295837 3.4293966 -1.4055128
0001f0 fb 47 46 c0 e6 19 54 40 f5 97 8a 3f f3 3c 01 c0
       -3.0981433 3.3140807 1.0827624 -2.019345
000200 b7 04 a2 3f db 60 5a c0 47 3c d2 bf c2 a7 29 bf
       1.2657689 -3.4121616 -1.6424645 -0.66271603
000210 0b c6 56 c0 17 d8 9d c0 89 ca 23 bf f1 89 83 3f
       -3.3558376 -4.932628 -0.6398092 1.0276471
000220 71 de 45 40 60 c7 67 41 f3 5e b9 40 b7 e2 4e 40
       3.0917017 14.486176 5.7928405 3.2325876
000230 30 2e 07 bf 1b 55 ff 3e e7 73 cf be 45 d4 59 bf
       -0.5280485 0.49869618 -0.40518114 -0.8508952
000240 7a 92 ab c0 5c be d5 bf e7 9e 81 40 4f 6b 84 bf
       -5.3616304 -1.6698718 4.0506473 -1.0345248
000250 4c 4d b2 c0 3c da 8a bf d7 9f 74 3f 1d 59 34 40
       -5.5719357 -1.084785 0.95556396 2.817939
000260 5f c1 15 be 8b 2c 20 be 33 2d 24 40 4a 35 be 3f
       -0.14624546 -0.15641992 2.5652587 1.4860013
000270 0d 69 6b 40 c7 ff 7d c0 eb e5 74 3f af be ea be
       3.6782868 -3.9687364 0.95663327 -0.45848605
000280 ef 84 bb 40 ee d0 06 c0 f3 2e 77 bf 24 ac 91 bf
       5.8599772 -2.106502 -0.96556014 -1.1380658
000290 f3 9f 7a bf ec 76 46 c0 a4 92 8e 40 f1 15 1f bf
       -0.97900313 -3.1010084 4.4554005 -0.62142855
0002a0 46 17 2b be 45 ef 2f be ac 21 d0 3f 2c 71 3b 3b
       -0.16708097 -0.17181118 1.6260276 0.0028601391
0002b0 5c 55 01 c0 3a 68 73 40 00 a8 cb c0 ce 33 d8 c0
       -2.020835 3.8032365 -6.364258 -6.756324
0002c0 10 13 1c be af 8c b3 3e d2 6c 53 3f 6c d4 32 c0
       -0.15241647 0.3506827 0.8258792 -2.7942152
0002d0 49 5a 47 c0 e2 5d 80 bf ef 1e 98 c0 d7 84 49 40
       -3.1148856 -1.0028651 -4.753776 3.148733
0002e0 ff 72 0e 40 8c 6d 12 c0 f4 a7 c3 3f c5 32 67 3f
       2.2257688 -2.2879362 1.528563 0.90311843
0002f0 d2 13 59 3e d4 01 a1 bf fe dc a9 be 29 ce 84 40
       0.21198967 -1.2578683 -0.33176416 4.150166
000300 4a 9d 1d 40 39 40 df be ca b2 e9 bf 14 4d f9 bf
       2.4627252 -0.43603685 -1.8257687 -1.9476647
000310 d0 bd 93 40 bb 64 05 bf 46 37 9b bf 02 ac 5a bf
       4.6169205 -0.5210683 -1.2126243 -0.85418713
000320 27 68 fe bf a2 d1 f8 3e fa 9d 1b bf e3 40 c3 bf
       -1.9875535 0.48597437 -0.6078793 -1.5254177
000330 20 48 8b bf 46 41 c1 3f bc ba 4a 3f f8 d7 5c 3f
       -1.0881386 1.5098045 0.79191184 0.8626704
000340 32 d6 e8 bf ee de bd bf 1e bd 48 3f 4e 03 93 bb
       -1.8190367 -1.4833658 0.7841357 -0.004486478
000350 eb b8 18 3f 0f 0b 1d bf da f2 a8 3e 45 3f 06 be
       0.5965716 -0.61345 0.3299778 -0.13110073
000360 6b 8d 10 3f 06 37 ab 3f 8e 06 98 be e3 85 6a bf
       0.56465787 1.3376167 -0.296925 -0.91610545
000370 ee c6 d1 be 20 28 2d c0 97 8e 5d bf 98 eb af 3f
       -0.40972084 -2.705574 -0.865457 1.3743773
000380 f4 12 6a bf 22 37 a8 40 a2 29 84 bf 44 e5 83 c0
       -0.9143517 5.25673 -1.0325205 -4.1217365
000390 dd 95 79 3f e4 0a 20 40 04 7e e8 bf 93 b8 c8 be
       0.974943 2.5006647 -1.8163457 -0.3920332
0003a0 1f 35 eb 3f 0d 95 7c 3e 8d d8 17 40 e2 53 cd bf
       1.8375586 0.24666233 2.3725922 -1.6041224
0003b0 bc e8 4d 3f 54 d0 d7 3d f2 ff 0b 3f 8b 35 e5 3f
       0.8043325 0.10537782 0.54687417 1.7906965
0003c0 f0 d7 fb be e4 5b 08 40 5f 47 a8 3d 37 11 b6 bf
       -0.49188185 2.1306086 0.08216738 -1.4224004
0003d0 0b 94 fd 3f 81 79 01 c0 9c ca 11 bf 67 d7 65 c0
       1.9810804 -2.023041 -0.5694978 -3.591272
0003e0 91 fc 9b 3f 0a cb 81 3e 8d 1d 04 40 96 2b 70 bf
       1.2186452 0.2535022 2.0643036 -0.93816507
0003f0 89 0a 6d bc 5e db 93 c0 85 57 8e 3f 60 5c d8 3f
       -0.014467844 -4.620528 1.1120459 1.6903191

output_mask f4 [352]
000000 00 00 80 3f 00 00 80 3f 00 00 80 3f 00 00 80 3f
       1.0 1.0 1.0 1.0
000010 00 00 80 3f 00 00 80 3f 00 00 80 3f 00 00 80 3f
       1.0 1.0 1.0 1.0
000020 00 00 80 3f 00 00 80 3f 00 00 80 3f 00 00 80 3f
       1.0 1.0 1.0 1.0
000030 00 00 80 3f 00 00 80 3f 00 00 80 3f 00 00 80 3f
       1.0 1.0 1.0 1.0
000040 00 00 80 3f 00 00 80 3f 00 00 80 3f 00 00 80 3f
       1.0 1.0 1.0 1.0
000050 00 00 80 3f 00 00 80 3f 00 00 80 3f 00 00 80 3f
       1.0 1.0 1.0 1.0
000060 00 00 80 3f 00 00 80 3f 00 00 80 3f 00 00 80 3f
       1.0 1.0 1.0 1.0
000070 00 00 80 3f 00 00 80 3f 00 00 80 3f 00 00 80 3f
       1.0 1.0 1.0 1.0
000080 00 00 80 3f 00 00 80 3f 00 00 80 3f 00 00 80 3f
       1.0 1.0 1.0 1.0
000090 00 00 80 3f 00 00 80 3f 00 00 80 3f 00 00 80 3f
       1.0 1.0 1.0 1.0
0000a0 00 00 80 3f 00 00 80 3f 00 00 80 3f 00 00 80 3f
       1.0 1.0 1.0 1.0
0000b0 00 00 80 3f 00 00 80 3f 00 00 80 3f 00 00 80 3f
       1.0 1.0 1.0 1.0
0000c0 00 00 80 3f 00 00 80 3f 00 00 80 3f 00 00 80 3f
       1.0 1.0 1.0 1.0
0000d0 00 00 80 3f 00 00 80 3f 00 00 80 3f 00 00 80 3f
       1.0 1.0 1.0 1.0
0000e0 00 00 80 3f 00 00 80 3f 00 00 80 3f 00 00 80 3f
       1.0 1.0 1.0 1.0
0000f0 00 00 80 3f 00 00 80 3f 00 00 80 3f 00 00 80 3f
       1.0 1.0 1.0 1.0
000100 00 00 80 3f 00 00 80 3f 00 00 80 3f 00 00 80 3f
       1.0 1.0 1.0 1.0
000110 00 00 80 3f 00 00 80 3f 00 00 80 3f 00 00 80 3f
       1.0 1.0 1.0 1.0
000120 00 00 80 3f 00 00 80 3f 00 00 80 3f 00 00 80 3f
       1.0 1.0 1.0 1.0
000130 00 00 80 3f 00 00 80 3f 00 00 80 3f 00 00 80 3f
       1.0 1.0 1.0 1.0
000140 00 00 80 3f 00 00 80 3f 00 00 80 3f 00 00 80 3f
       1.0 1.0 1.0 1.0
000150 00 00 80 3f 00 00 80 3f 00 00 80 3f 00 00 80 3f
       1.0 1.0 1.0 1.0
000160 00 00 80 3f 00 00 80 3f 00 00 80 3f 00 00 80 3f
       1.0 1.0 1.0 1.0
000170 00 00 80 3f 00 00 80 3f 00 00 80 3f 00 00 80 3f
       1.0 1.0 1.0 1.0
000180 00 00 80 3f 00 00 80 3f 00 00 80 3f 00 00 80 3f
       1.0 1.0 1.0 1.0
000190 00 00 80 3f 00 00 80 3f 00 00 80 3f 00 00 80 3f
       1.0 1.0 1.0 1.0
0001a0 00 00 80 3f 00 00 80 3f 00 00 80 3f 00 00 80 3f
       1.0 1.0 1.0 1.0
0001b0 00 00 80 3f 00 00 80 3f 00 00 80 3f 00 00 80 3f
       1.0 1.0 1.0 1.0
0001c0 00 00 80 3f 00 00 80 3f 00 00 80 3f 00 00 80 3f
       1.0 1.0 1.0 1.0
0001d0 00 00 80 3f 00 00 80 3f 00 00 80 3f 00 00 80 3f
       1.0 1.0 1.0 1.0
0001e0 00 00 80 3f 00 00 80 3f 00 00 80 3f 00 00 80 3f
       1.0 1.0 1.0 1.0
0001f0 00 00 80 3f 00 00 80 3f 00 00 80 3f 00 00 80 3f
       1.0 1.0 1.0 1.0
000200 00 00 80 3f 00 00 80 3f 00 00 80 3f 00 00 80 3f
       1.0 1.0 1.0 1.0
000210 00 00 80 3f 00 00 80 3f 00 00 80 3f 00 00 80 3f
       1.0 1.0 1.0 1.0
000220 00 00 80 3f 00 00 80 3f 00 00 80 3f 00 00 80 3f
       1.0 1.0 1.0 1.0
000230 00 00 80 3f 00 00 80 3f 00 00 80 3f 00 00 80 3f
       1.0 1.0 1.0 1.0
000240 00 00 80 3f 00 00 80 3f 00 00 80 3f 00 00 80 3f
       1.0 1.0 1.0 1.0
000250 00 00 80 3f 00 00 80 3f 00 00 80 3f 00 00 80 3f
       1.0 1.0 1.0 1.0
000260 00 00 80 3f 00 00 80 3f 00 00 80 3f 00 00 80 3f
       1.0 1.0 1.0 1.0
000270 00 00 80 3f 00 00 80 3f 00 00 80 3f 00 00 80 3f
       1.0 1.0 1.0 1.0
000280 00 00 80 3f 00 00 80 3f 00 00 80 3f 00 00 80 3f
       1.0 1.0 1.0 1.0
000290 00 00 80 3f 00 00 80 3f 00 00 80 3f 00 00 80 3f
       1.0 1.0 1.0 1.0
0002a0 00 00 80 3f 00 00 80 3f 00 00 80 3f 00 00 80 3f
       1.0 1.0 1.0 1.0
0002b0 00 00 80 3f 00 00 80 3f 00 00 80 3f 00 00 80 3f
       1.0 1.0 1.0 1.0
0002c0 00 00 80 3f 00 00 80 3f 00 00 80 3f 00 00 80 3f
       1.0 1.0 1.0 1.0
0002d0 00 00 80 3f 00 00 80 3f 00 00 80 3f 00 00 80 3f
       1.0 1.0 1.0 1.0
0002e0 00 00 80 3f 00 00 80 3f 00 00 80 3f 00 00 80 3f
       1.0 1.0 1.0 1.0
0002f0 00 00 80 3f 00 00 80 3f 00 00 80 3f 00 00 80 3f
       1.0 1.0 1.0 1.0
000300 00 00 80 3f 00 00 80 3f 00 00 80 3f 00 00 80 3f
       1.0 1.0 1.0 1.0
000310 00 00 80 3f 00 00 80 3f 00 00 80 3f 00 00 80 3f
       1.0 1.0 1.0 1.0
000320 00 00 80 3f 00 00 80 3f 00 00 80 3f 00 00 80 3f
       1.0 1.0 1.0 1.0
000330 00 00 80 3f 00 00 80 3f 00 00 80 3f 00 00 80 3f
       1.0 1.0 1.0 1.0
000340 00 00 80 3f 00 00 80 3f 00 00 80 3f 00 00 80 3f
       1.0 1.0 1.0 1.0
000350 00 00 80 3f 00 00 80 3f 00 00 80 3f 00 00 80 3f
       1.0 1.0 1.0 1.0
000360 00 00 80 3f 00 00 80 3f 00 00 80 3f 00 00 80 3f
       1.0 1.0 1.0 1.0
000370 00 00 80 3f 00 00 80 3f 00 00 80 3f 00 00 80 3f
       1.0 1.0 1.0 1.0
000380 00 00 80 3f 00 00 80 3f 00 00 80 3f 00 00 80 3f
       1.0 1.0 1.0 1.0
000390 00 00 80 3f 00 00 80 3f 00 00 80 3f 00 00 80 3f
       1.0 1.0 1.0 1.0
0003a0 00 00 80 3f 00 00 80 3f 00 00 80 3f 00 00 80 3f
       1.0 1.0 1.0 1.0
0003b0 00 00 80 3f 00 00 80 3f 00 00 80 3f 00 00 80 3f
       1.0 1.0 1.0 1.0
0003c0 00 00 80 3f 00 00 80 3f 00 00 80 3f 00 00 80 3f
       1.0 1.0 1.0 1.0
0003d0 00 00 80 3f 00 00 80 3f 00 00 80 3f 00 00 80 3f
       1.0 1.0 1.0 1.0
0003e0 00 00 80 3f 00 00 80 3f 00 00 80 3f 00 00 80 3f
       1.0 1.0 1.0 1.0
0003f0 00 00 80 3f 00 00 80 3f 00 00 80 3f 00 00 80 3f
       1.0 1.0 1.0 1.0

weight f4 [9216]
000000 d8 91 a2 bf af bb 29 3f 3e ab 11 bf d3 01 f6 3e
       -1.2700758 0.6630201 -0.5690192 0.48048267
000010 cd fd 0f 40 99 f7 04 c0 72 9d 13 bf 0c d1 22 3f
       2.2498658 -2.0776122 -0.5766212 0.6360023
000020 d5 25 c2 3f d6 e0 f7 bf 00 15 9c bf 98 c4 b4 bd
       1.5167795 -1.936549 -1.2193909 -0.0882656
000030 72 7e 67 3f e1 fc a8 bf 29 35 83 3f 88 c1 80 be
       0.90427315 -1.3202173 1.0250598 -0.25147653
000040 48 07 00 c0 17 68 49 bb 2b dd eb 3f 2d a2 87 3f
       -2.0004444 -0.0030732208 1.842687 1.0596367
000050 c7 7e 99 3d 5f 6d 85 bf df 2a 73 3d 69 e2 aa 3e
       0.07494884 -1.0424002 0.059367057 0.33375862
000060 93 b3 0c 40 8a 50 5b bf 64 93 49 bf 7a 68 39 3e
       2.1984603 -0.8566977 -0.78740525 0.18106261
000070 f7 75 61 bf 94 c7 92 bf af 15 e1 3e 35 77 86 bf
       -0.88070625 -1.1467156 0.43961856 -1.0505129
000080 6a 4d 15 3f 59 6e ce bf bd 97 47 bf f2 47 0f c0
       0.5832125 -1.6127425 -0.7796591 -2.2387662
000090 68 df 56 3f 01 12 a2 bf 3a 57 0b bf a3 c6 16 bf
       0.8393464 -1.2661744 -0.5442997 -0.58896846
0000a0 71 1f 4a 3d b3 46 e6 3e e5 d3 31 40 d8 05 2e 3f
       0.04934639 0.44975814 2.778558 0.67977667
0000b0 c2 96 dd 3f 9a 53 81 3f 1d 97 4e bf 3d 42 a7 bf
       1.7311633 1.0103638 -0.8069933 -1.3067089
0000c0 ef 7a 0e 3f 8b 73 54 3e 8e 6e cf bf 77 34 7a 3f
       0.5565633 0.20747201 -1.6205614 0.97736305
0000d0 71 5a 14 3f f8 a0 0d 40 bc d1 70 3f 91 f8 ab bf
       0.579505 2.2129498 0.9407003 -1.3435231
0000e0 d1 d4 a3 3f 16 70 58 3e 79 63 6c 3e 3b 16 12 c0
       1.2799321 0.21136507 0.23084821 -2.2826068
0000f0 6d 10 8a 3f 2f a9 33 c0 4b d6 e0 3f 0b 2c c0 bf
       1.0786263 -2.8072011 1.7565397 -1.5013441
000100 7b 49 ca 3e ca a9 f2 be e2 ae 2a 3e bd 70 96 bf
       0.39509186 -0.47395164 0.16668275 -1.1753155
000110 23 63 a5 be 99 0f 1c 3f dd ec 04 40 a4 91 e2 bf
       -0.32302198 0.609613 2.076957 -1.7700696
000120 9d ee 3a 3f 9e 4f a7 3f 49 81 c0 3d 85 67 2d bf
       0.73020345 1.3071172 0.09399659 -0.67736083
000130 a5 bd c0 3e 40 25 c8 bf 59 94 d7 3f de 1b 2e bf
       0.37644687 -1.5636368 1.6842147 -0.6801127
000140 50 f7 d9 bf d0 2c c5 bf 64 35 6e bf 78 57 a3 3f
       -1.7028599 -1.5404301 -0.9305022 1.2761068
000150 d5 f3 42 3e 27 d7 42 be 17 74 92 3e 51 cd d1 3d
       0.19038327 -0.19027387 0.28604195 0.10244239
000160 28 21 52 3f d0 b9 46 3f d2 6d cc bf 58 2f b9 3e
       0.8208184 0.7762728 -1.5971014 0.36168933
000170 a6 49 4b 3f 41 f1 5f bf 47 2d ce bd d8 97 b0 3f
       0.79409254 -0.874775 -0.1006723 1.3796339
000180 49 5c 4c 3f bc 30 bb be 2f 4d b6 3f ae ad ac bd
       0.79828316 -0.3656062 1.4242305 -0.08431564
000190 8b bd 4a bf e3 a2 66 3f 3b fb a5 3f 9f 38 33 be
       -0.7919547 0.90092295 1.2967294 -0.17502068
0001a0 73 99 96 be e9 73 79 bf 6c 1a 28 bf a9 ef 05 3e
       -0.29413947 -0.9744249 -0.65665317 0.13079704
0001b0 e4 40 6b 3f 77 9f 9e 3e c2 7a 62 3f 95 b5 2b be
       0.9189589 0.30981037 0.88468564 -0.16768487
0001c0 00 96 b8 3f cc bb ce bd d9 30 b1 3f aa 6c b4 3f
       1.4420776 -0.10094413 1.3843032 1.4095662
0001d0 93 b2 32 bf d0 36 a1 bf b9 74 a0 bf e5 25 66 be
       -0.6980373 -1.2594852 -1.2535621 -0.22475393
0001e0 02 71 b1 3e 36 4b 53 bf c3 8f 53 3f ca 6e 08 40
       0.3465653 -0.8253664 0.8264124 2.131762
0001f0 c0 f1 ab 3e 58 ed 17 3f f0 91 9a 3e b1 bc e5 bf
       0.33582878 0.5934653 0.30189466 -1.7948209
000200 a7 84 3b 3f 01 5a 0b 40 e9 86 48 c0 02 5f 89 3f
       0.73249286 2.1773684 -3.1332343 1.0732119
000210 4d 14 45 3f d2 36 84 3f 02 d8 bc 3f b1 a2 ef bf
       0.769841 1.032923 1.475342 -1.8721524
000220 17 ba 2a 40 06 b7 66 c0 d8 95 7a bf e7 e7 1f 40
       2.667608 -3.6049209 -0.97884893 2.4985292
000230 a3 93 09 3f 96 e1 52 bf 79 83 58 c0 e8 ae d6 bf
       0.537409 -0.82375467 -3.3830245 -1.6772127
000240 22 58 86 3f 71 a8 62 bf 08 3d ff bf 2a 06 3d bf
       1.0495646 -0.8853827 -1.99405 -0.7383753
000250 f4 83 08 40 67 4c 04 40 e0 1e 9d 3f d9 ba 34 c0
       2.1330538 2.0671632 1.2275047 -2.8239043
000260 dd 0c 31 bf 7c 0f b1 3f f2 8d 90 be 92 09 d0 3f
       -0.6916025 1.383285 -0.28233296 1.6252921
000270 1b c5 04 40 95 6f 26 3f ce 57 95 be aa 48 8d be
       2.0745304 0.6501401 -0.29168552 -0.275945
000280 af ec f6 3f fa 82 9c 3e a7 f2 21 40 68 54 98 40
       1.929098 0.30568677 2.5304353 4.7603035
000290 d1 fc 34 c0 76 3c 74 3f 7a a9 24 be 0d 86 d3 be
       -2.8279307 0.95404756 -0.16080275 -0.4131321
0002a0 14 69 51 bd 42 6f 60 c0 e4 8a 04 bf 3f 16 9a 3d
       -0.0511256 -3.5067906 -0.5177443 0.07523774
0002b0 be 6a 00 40 d9 64 50 be 27 d1 88 40 61 24 dc bf
       2.006515 -0.2035097 4.2755313 -1.7198602
0002c0 7e ed 6c bf 2a c3 98 bf d5 b3 91 3f 64 d1 11 40
       -0.92549884 -1.1934559 1.1383005 2.2784052
0002d0 58 9a 26 3f 51 c3 82 be e6 3d 14 be 99 57 0b 40
       0.6507926 -0.2553964 -0.14476737 2.1772215
0002e0 02 ea 5b 3e a3 1b 23 bf b6 59 05 3e ba 9e f5 3f
       0.21475986 -0.63714045 0.13022503 1.9189065
0002f0 50 fb 54 bf 77 ab 4d 3f 04 bc 5b 40 27 c6 4f 3f
       -0.8319597 0.8033976 3.4333506 0.8116173
000300 67 05 de 3f 50 96 83 bf 69 2b 96 be d5 93 67 be
       1.7345399 -1.0280247 -0.29329994 -0.22614987
000310 68 aa d6 3e c0 3a 26 40 18 3a 06 c0 b3 fd 6f bf
       0.41926885 2.5973358 -2.0972958 -0.9374649
000320 7f 47 47 bf b5 cb e3 3f 5f 08 75 bf 48 83 43 c0
       -0.7784347 1.7796541 -0.957159 -3.0548878
000330 03 62 fd be 92 1f cb 3f 32 79 d7 bf 59 a2 07 bf
       -0.4948884 1.586901 -1.6833861 -0.529821
000340 e3 d3 b1 bf 5c ec e3 3e 20 d2 cf be 87 c7 4d 40
       -1.3892788 0.44516265 -0.4059 3.2153032
000350 f0 41 0b 40 e2 1e 8e bf 63 01 35 40 15 b7 8a 3e
       2.1758995 -1.1103175 2.8282096 0.27092806
000360 fd ca 02 40 6e cc d9 be 0e 2f 9a bd 97 89 18 3f
       2.0436394 -0.4253878 -0.07528506 0.59584945
000370 e8 8a f7 3e ef 5b af bf 86 01 6f bf 7a 72 b5 3f
       0.48348165 -1.3699931 -0.933617 1.417556
000380 6c 25 00 40 98 e7 0a 40 d3 6c 10 40 cf d2 55 3f
       2.002284 2.1703854 2.256642 0.83524793
000390 25 d8 be be 36 10 33 40 eb fe e6 bd c2 30 87 bf
       -0.3727428 2.7978644 -0.112790905 -1.0561755
0003a0 d6 cb fa bf 54 d4 01 40 6b a3 0b 40 0e 55 24 c0
       -1.9593456 2.0285845 2.1818492 -2.5676913
0003b0 c8 88 66 40 79 b0 25 40 5e 6d ac 3d 78 cc 91 3f
       3.6020985 2.588896 0.08419298 1.1390524
0003c0 2d 73 92 3f 82 c3 97 bd f4 12 96 3f 7c bd 92 3f
       1.1441399 -0.07410337 1.1724534 1.1464076
0003d0 44 ad 30 bf 4f 7a 1b c0 1a ef 28 40 90 de c9 bf
       -0.6901438 -2.4293401 2.6395936 -1.5771046
0003e0 9d a2 c0 be 22 30 fd bb 95 33 09 c0 c5 ba 6d 3e
       -0.37624064 -0.007726685 -2.1437733 0.23215778
0003f0 ed 9c 83 40 b8 e2 ed 3f 4d 1a fa 3f b4 62 f6 3f
       4.112906 1.8584814 1.9539276 1.9248872
