CsPbBr3/Nequip-r2SCAN_rVV10/1_structures_optimization/training_script/best.pth (torch, 740568 bytes, 36 tensors)

bessel_weights f4 [8]
000000 f8 2b d4 3f fa 78 a7 40 49 da 0d 41 b2 31 3f 41
       1.6575918 5.2335176 8.865792 11.949633
000010 65 61 70 41 a4 1e 94 41 2f fe b3 41 85 3e d5 41
       15.023778 18.514961 22.499113 26.655527

weight f4 [96]
000000 1c b8 c9 bc a9 98 d4 be 0a 81 7f bf d7 9e 11 be
       -0.024623923 -0.4152272 -0.99806273 -0.14220749
000010 7d d2 1d 3f fc bc b9 3f 42 ab 0e 3e 34 c4 c2 be
       0.61649305 1.4510798 0.13932517 -0.38040316
000020 df 5b 89 3f 77 65 f1 bf 82 01 13 3f 22 70 f8 bf
       1.0731162 -1.885909 0.57424176 -1.940922
000030 1b 40 d4 3c ca 6f fd 3f 01 ff fe 3e 26 64 c4 3e
       0.025909474 1.979974 0.49803928 0.38357657
000040 d2 a0 f0 ba 9c b7 90 bf 6c c4 4d be 0a 4b 5a 3f
       -0.0018358475 -1.1306033 -0.2009446 0.8527075
000050 36 ef d8 3f 4e da a3 3f c8 98 d4 3f 56 b8 a5 3b
       1.6948001 1.2800996 1.6609125 0.005057375
000060 9f db be 3e 87 82 20 c0 7a 40 89 3f 10 e8 e7 bf
       0.37276933 -2.5079668 1.0722802 -1.8117695
000070 d3 60 9c bf ec 73 e3 3e e8 02 cd be 5f 8d 15 c0
       -1.2217048 0.4442438 -0.4004128 -2.3367536
000080 8f fa a5 bf cc e7 83 3f 60 70 18 c0 fc ad d1 bc
       -1.296709 1.0305114 -2.3818588 -0.025595658
000090 0c db 0e bf 3f 25 95 be 00 4c b1 bf db e1 8a bf
       -0.5580299 -0.2912998 -1.3851318 -1.0850176
0000a0 dc 86 b1 3f 60 95 15 40 48 c2 ba bd f3 0b f1 bb
       1.3869281 2.3372421 -0.091190875 -0.007356161
0000b0 5f fb 51 bd 5b a4 e4 be b4 ce a2 3f a9 65 02 c0
       -0.051265117 -0.44656643 1.2719331 -2.0374548
0000c0 f1 8d aa 3f 61 b0 12 40 3f 31 19 c0 3a fd 94 3f
       1.3324567 2.2920153 -2.3936307 1.1639779
0000d0 5c a2 f3 bf 47 08 b2 3f b1 d2 4d 3f da 21 0a bd
       -1.9033923 1.3908776 0.80399615 -0.03372369
0000e0 7e 4c 07 40 a0 08 12 bf d5 79 cc be 02 58 1b 40
       2.1140437 -0.5704441 -0.399367 2.4272466
0000f0 d3 dd a4 bf 65 c5 ac bf 4e 0f 20 3e be 6e 26 3e
       -1.2880195 -1.349774 0.15630838 0.16253182
000100 74 68 7b 3f 2e 75 0c 40 c0 7d 33 bd c3 a2 f5 bf
       0.9820626 2.194652 -0.043821096 -1.9190296
000110 f6 1a fd be ec a9 40 40 5e 5f 59 c0 da ec 9d 3f
       -0.49434632 3.0103712 -3.3964458 1.2337906
000120 6d 07 9e 3e fb a5 a0 3f d6 7d 4d bf df f1 0b 3f
       0.3086504 1.2550653 -0.80270135 0.5466594
000130 ef 1a 55 bf da b0 06 bf 7f e5 85 3c af 56 32 c0
       -0.8324422 -0.52613604 0.016344784 -2.7865407
000140 7a 69 0f 3f 4a a8 d6 be 38 16 2a 3f 7d c9 af 3e
       0.5602032 -0.4192527 0.66440153 0.3433341
000150 9b b3 85 bf 46 84 65 3d c5 1a 42 bf 0d 52 16 c0
       -1.0445436 0.05603435 -0.758221 -2.348758
000160 12 45 2e c0 aa 96 23 be fe 71 26 3f c6 87 19 bd
       -2.7229657 -0.15975443 0.6501769 -0.037483
000170 22 e7 d0 bc 8b 3a 32 c0 8e 32 fe 3f 26 76 a5 bf
       -0.025500838 -2.7848232 1.9859178 -1.2926681

output_mask f4 [32]
000000 00 00 80 3f 00 00 80 3f 00 00 80 3f 00 00 80 3f
       1.0 1.0 1.0 1.0
000010 00 00 80 3f 00 00 80 3f 00 00 80 3f 00 00 80 3f
       1.0 1.0 1.0 1.0
000020 00 00 80 3f 00 00 80 3f 00 00 80 3f 00 00 80 3f
       1.0 1.0 1.0 1.0
000030 00 00 80 3f 00 00 80 3f 00 00 80 3f 00 00 80 3f
       1.0 1.0 1.0 1.0
000040 00 00 80 3f 00 00 80 3f 00 00 80 3f 00 00 80 3f
       1.0 1.0 1.0 1.0
000050 00 00 80 3f 00 00 80 3f 00 00 80 3f 00 00 80 3f
       1.0 1.0 1.0 1.0
000060 00 00 80 3f 00 00 80 3f 00 00 80 3f 00 00 80 3f
       1.0 1.0 1.0 1.0
000070 00 00 80 3f 00 00 80 3f 00 00 80 3f 00 00 80 3f
       1.0 1.0 1.0 1.0

output_mask f4 [256]
000000 00 00 80 3f 00 00 80 3f 00 00 80 3f 00 00 80 3f
       1.0 1.0 1.0 1.0
000010 00 00 80 3f 00 00 80 3f 00 00 80 3f 00 00 80 3f
       1.0 1.0 1.0 1.0
000020 00 00 80 3f 00 00 80 3f 00 00 80 3f 00 00 80 3f
       1.0 1.0 1.0 1.0
000030 00 00 80 3f 00 00 80 3f 00 00 80 3f 00 00 80 3f
       1.0 1.0 1.0 1.0
000040 00 00 80 3f 00 00 80 3f 00 00 80 3f 00 00 80 3f
       1.0 1.0 1.0 1.0
000050 00 00 80 3f 00 00 80 3f 00 00 80 3f 00 00 80 3f
       1.0 1.0 1.0 1.0
000060 00 00 80 3f 00 00 80 3f 00 00 80 3f 00 00 80 3f
       1.0 1.0 1.0 1.0
000070 00 00 80 3f 00 00 80 3f 00 00 80 3f 00 00 80 3f
       1.0 1.0 1.0 1.0
000080 00 00 80 3f 00 00 80 3f 00 00 80 3f 00 00 80 3f
       1.0 1.0 1.0 1.0
000090 00 00 80 3f 00 00 80 3f 00 00 80 3f 00 00 80 3f
       1.0 1.0 1.0 1.0
0000a0 00 00 80 3f 00 00 80 3f 00 00 80 3f 00 00 80 3f
       1.0 1.0 1.0 1.0
0000b0 00 00 80 3f 00 00 80 3f 00 00 80 3f 00 00 80 3f
       1.0 1.0 1.0 1.0
0000c0 00 00 80 3f 00 00 80 3f 00 00 80 3f 00 00 80 3f
       1.0 1.0 1.0 1.0
0000d0 00 00 80 3f 00 00 80 3f 00 00 80 3f 00 00 80 3f
       1.0 1.0 1.0 1.0
0000e0 00 00 80 3f 00 00 80 3f 00 00 80 3f 00 00 80 3f
       1.0 1.0 1.0 1.0
0000f0 00 00 80 3f 00 00 80 3f 00 00 80 3f 00 00 80 3f
       1.0 1.0 1.0 1.0
000100 00 00 80 3f 00 00 80 3f 00 00 80 3f 00 00 80 3f
       1.0 1.0 1.0 1.0
000110 00 00 80 3f 00 00 80 3f 00 00 80 3f 00 00 80 3f
       1.0 1.0 1.0 1.0
000120 00 00 80 3f 00 00 80 3f 00 00 80 3f 00 00 80 3f
       1.0 1.0 1.0 1.0
000130 00 00 80 3f 00 00 80 3f 00 00 80 3f 00 00 80 3f
       1.0 1.0 1.0 1.0
000140 00 00 80 3f 00 00 80 3f 00 00 80 3f 00 00 80 3f
       1.0 1.0 1.0 1.0
000150 00 00 80 3f 00 00 80 3f 00 00 80 3f 00 00 80 3f
       1.0 1.0 1.0 1.0
000160 00 00 80 3f 00 00 80 3f 00 00 80 3f 00 00 80 3f
       1.0 1.0 1.0 1.0
000170 00 00 80 3f 00 00 80 3f 00 00 80 3f 00 00 80 3f
       1.0 1.0 1.0 1.0
000180 00 00 80 3f 00 00 80 3f 00 00 80 3f 00 00 80 3f
       1.0 1.0 1.0 1.0
000190 00 00 80 3f 00 00 80 3f 00 00 80 3f 00 00 80 3f
       1.0 1.0 1.0 1.0
0001a0 00 00 80 3f 00 00 80 3f 00 00 80 3f 00 00 80 3f
       1.0 1.0 1.0 1.0
0001b0 00 00 80 3f 00 00 80 3f 00 00 80 3f 00 00 80 3f
       1.0 1.0 1.0 1.0
0001c0 00 00 80 3f 00 00 80 3f 00 00 80 3f 00 00 80 3f
       1.0 1.0 1.0 1.0
0001d0 00 00 80 3f 00 00 80 3f 00 00 80 3f 00 00 80 3f
       1.0 1.0 1.0 1.0
0001e0 00 00 80 3f 00 00 80 3f 00 00 80 3f 00 00 80 3f
       1.0 1.0 1.0 1.0
0001f0 00 00 80 3f 00 00 80 3f 00 00 80 3f 00 00 80 3f
       1.0 1.0 1.0 1.0
000200 00 00 80 3f 00 00 80 3f 00 00 80 3f 00 00 80 3f
       1.0 1.0 1.0 1.0
000210 00 00 80 3f 00 00 80 3f 00 00 80 3f 00 00 80 3f
       1.0 1.0 1.0 1.0
000220 00 00 80 3f 00 00 80 3f 00 00 80 3f 00 00 80 3f
       1.0 1.0 1.0 1.0
000230 00 00 80 3f 00 00 80 3f 00 00 80 3f 00 00 80 3f
       1.0 1.0 1.0 1.0
000240 00 00 80 3f 00 00 80 3f 00 00 80 3f 00 00 80 3f
       1.0 1.0 1.0 1.0
000250 00 00 80 3f 00 00 80 3f 00 00 80 3f 00 00 80 3f
       1.0 1.0 1.0 1.0
000260 00 00 80 3f 00 00 80 3f 00 00 80 3f 00 00 80 3f
       1.0 1.0 1.0 1.0
000270 00 00 80 3f 00 00 80 3f 00 00 80 3f 00 00 80 3f
       1.0 1.0 1.0 1.0
000280 00 00 80 3f 00 00 80 3f 00 00 80 3f 00 00 80 3f
       1.0 1.0 1.0 1.0
000290 00 00 80 3f 00 00 80 3f 00 00 80 3f 00 00 80 3f
       1.0 1.0 1.0 1.0
0002a0 00 00 80 3f 00 00 80 3f 00 00 80 3f 00 00 80 3f
       1.0 1.0 1.0 1.0
0002b0 00 00 80 3f 00 00 80 3f 00 00 80 3f 00 00 80 3f
       1.0 1.0 1.0 1.0
0002c0 00 00 80 3f 00 00 80 3f 00 00 80 3f 00 00 80 3f
       1.0 1.0 1.0 1.0
0002d0 00 00 80 3f 00 00 80 3f 00 00 80 3f 00 00 80 3f
       1.0 1.0 1.0 1.0
0002e0 00 00 80 3f 00 00 80 3f 00 00 80 3f 00 00 80 3f
       1.0 1.0 1.0 1.0
0002f0 00 00 80 3f 00 00 80 3f 00 00 80 3f 00 00 80 3f
       1.0 1.0 1.0 1.0
000300 00 00 80 3f 00 00 80 3f 00 00 80 3f 00 00 80 3f
       1.0 1.0 1.0 1.0
000310 00 00 80 3f 00 00 80 3f 00 00 80 3f 00 00 80 3f
       1.0 1.0 1.0 1.0
000320 00 00 80 3f 00 00 80 3f 00 00 80 3f 00 00 80 3f
       1.0 1.0 1.0 1.0
000330 00 00 80 3f 00 00 80 3f 00 00 80 3f 00 00 80 3f
       1.0 1.0 1.0 1.0
000340 00 00 80 3f 00 00 80 3f 00 00 80 3f 00 00 80 3f
       1.0 1.0 1.0 1.0
000350 00 00 80 3f 00 00 80 3f 00 00 80 3f 00 00 80 3f
       1.0 1.0 1.0 1.0
000360 00 00 80 3f 00 00 80 3f 00 00 80 3f 00 00 80 3f
       1.0 1.0 1.0 1.0
000370 00 00 80 3f 00 00 80 3f 00 00 80 3f 00 00 80 3f
       1.0 1.0 1.0 1.0
000380 00 00 80 3f 00 00 80 3f 00 00 80 3f 00 00 80 3f
       1.0 1.0 1.0 1.0
000390 00 00 80 3f 00 00 80 3f 00 00 80 3f 00 00 80 3f
       1.0 1.0 1.0 1.0
0003a0 00 00 80 3f 00 00 80 3f 00 00 80 3f 00 00 80 3f
       1.0 1.0 1.0 1.0
0003b0 00 00 80 3f 00 00 80 3f 00 00 80 3f 00 00 80 3f
       1.0 1.0 1.0 1.0
0003c0 00 00 80 3f 00 00 80 3f 00 00 80 3f 00 00 80 3f
       1.0 1.0 1.0 1.0
0003d0 00 00 80 3f 00 00 80 3f 00 00 80 3f 00 00 80 3f
       1.0 1.0 1.0 1.0
0003e0 00 00 80 3f 00 00 80 3f 00 00 80 3f 00 00 80 3f
       1.0 1.0 1.0 1.0
0003f0 00 00 80 3f 00 00 80 3f 00 00 80 3f 00 00 80 3f
       1.0 1.0 1.0 1.0

weight f4 [1024]
000000 fc e5 29 c0 ff 6d df 3e 64 84 18 c0 46 ce 58 3f
       -2.6546621 0.43638608 -2.3830805 0.8468975
000010 ba 1f 25 3f 9d f1 11 c0 18 ab 89 3f 44 2c cf 3f
       0.64501536 -2.280372 1.0755339 1.6185384
000020 cb 3f 06 40 45 68 82 3f 22 31 c0 bf f9 03 cc bd
       2.0976436 1.018807 -1.5014994 -0.09961695
000030 04 a5 56 be bd 97 ad 3f 34 c3 73 bf 1e d4 02 3f
       -0.20961386 1.3561932 -0.9521973 0.51104915
000040 8d 9b cf 3e 29 a3 af 3f d9 1c 57 bf 6c 27 ad be
       0.40548363 1.3721668 -0.84028393 -0.3381914
000050 7f 60 bd 3f 89 40 14 3f b1 b5 96 bf 63 c9 08 40
       1.4795073 0.5791097 -1.1774198 2.1372917
000060 25 b1 ed 3f 1f 2a 80 3e bc 17 93 3f 03 af 8b 3f
       1.8569685 0.25032136 1.1491618 1.0912784
000070 12 4e ff 3e c1 d3 00 40 6b c3 e3 bf 8d 21 43 c0
       0.4986425 2.0129244 -1.7794012 -3.0489228
000080 88 16 87 bf f6 7a 83 bf 49 d1 b9 bf 96 e3 a1 bf
       -1.0553751 -1.02719 -1.4516994 -1.2647579
000090 bf d9 2b c0 01 38 da be f2 9d 0a c0 ed dc 73 40
       -2.6851652 -0.42620853 -2.1658902 3.8103592
0000a0 f6 f5 4a c0 07 b1 01 3f e4 4d f9 bf d7 bf c8 3f
       -3.1712623 0.5066075 -1.9476895 1.5683545
0000b0 fb d2 e1 3f f7 c4 a9 3f 33 fa e3 bf bc df 68 bf
       1.7642511 1.3263234 -1.781073 -0.9096639
0000c0 21 de ad 3f 41 d0 f6 3f 5f c1 3b 3f 6e 27 b4 3f
       1.3583413 1.9282304 0.73341936 1.4074533
0000d0 f7 e1 13 bf 47 f8 44 be 5a 5a eb 3f ea c3 16 40
       -0.5776667 -0.19235335 1.8386948 2.3557076
0000e0 ad 20 a8 3f 0f 8a 08 c0 52 34 1f 3f 7a 99 57 3f
       1.3134972 -2.1334264 0.6218921 0.8421856
0000f0 9f 94 08 40 38 74 9d 3e a2 8b 2f 40 dc db bf bf
       2.134071 0.3075273 2.7428975 -1.4988971
000100 14 b7 03 bf 6d 1f 0f 40 6c e4 e4 bf a4 9b 21 40
       -0.5145123 2.236293 -1.7882209 2.5251245
000110 21 17 d5 bf 13 c1 1c c0 90 57 cc 3f a9 27 09 3f
       -1.6647683 -2.4492843 1.5964222 0.5357614
000120 02 a9 90 be c2 76 05 c0 57 ce 7b 3f 18 7d fe 3f
       -0.28253943 -2.0853734 0.98361725 1.9881926
000130 29 49 80 3f 40 09 8a bd ae 7e ab 3e 83 d6 90 40
       1.0022327 -0.067400455 0.33495086 4.5261855
000140 2b 93 5b bf 8e 54 95 3f 48 cd 17 c0 e6 f2 36 3f
       -0.85771435 1.1666429 -2.3719044 0.71464384
000150 50 c9 1d 40 5d e9 50 40 bb 7a a8 3f 1b ee e9 3d
       2.4654121 3.2642434 1.3162454 0.11422368
000160 22 91 be be 76 35 bf 3f 2f 03 53 40 9b cd 0d c0
       -0.37220103 1.493819 3.2970693 -2.2156742
000170 96 5f 41 bf 7f 1c 92 3f ce 42 f4 be 47 a0 11 c0
       -0.7553648 1.1414946 -0.47707218 -2.2754076
000180 88 bd 76 bf d0 82 6a c0 c9 eb 8f bc d8 8a 67 3f
       -0.9638295 -3.6642342 -0.017568486 0.90446234
000190 9f 3c 8f 3f 0e c0 70 3e 6d 19 ed bf 07 23 5b c0
       1.1190375 0.23510763 -1.8523384 -3.424013
0001a0 2a 30 0b 40 0a 7c 04 be 16 2b 18 40 bf 1a 84 3e
       2.1748147 -0.12937942 2.3776298 0.25801656
0001b0 f0 19 92 bf 35 87 86 bf d6 fe 09 bf fd e5 6b 3f
       -1.1414165 -1.0510012 -0.53904474 0.9214781
0001c0 0b 0e 1c c0 1e 78 d8 bf 8c 53 07 bf c7 8a 91 bf
       -2.438357 -1.6911657 -0.5286186 -1.1370476
0001d0 f1 69 98 3f ca da 88 3f 4b a2 ab bd 78 f7 14 c0
       1.1907331 1.0691769 -0.08380564 -2.3276043
0001e0 10 de 06 c0 30 b6 ce 3f 3d 80 88 bf c0 5e 7e bf
       -2.1073036 1.6149349 -1.0664135 -0.9936333
0001f0 48 43 6a be 2c 7d df bd b4 45 11 c0 a5 18 b4 3f
       -0.22877228 -0.109125465 -2.2698793 1.4070021
000200 60 89 1c 40 be 68 67 3f 98 c7 0d 3e 93 4e d4 bf
       2.4458847 0.903942 0.1384567 -1.6586479
000210 8e 6f 60 3f a2 c6 27 c0 25 dd fe 3f 58 23 d5 bf
       0.8767022 -2.6214986 1.9911238 -1.6651411
000220 66 28 d2 3f fd 5f 9c bf b7 cc 58 bf ac 8e 2c 3e
       1.6418579 -1.2216793 -0.8468737 0.168513
000230 6a aa da bf 9a 1f 38 be 48 6d b2 3f 1f 92 f1 bf
       -1.7083256 -0.17980805 1.39396 -1.8872718
000240 16 e8 f8 3e ae 9e 5b be 65 0e 3f bf d7 86 ee be
       0.48614568 -0.2144725 -0.7463134 -0.4658725
000250 69 30 41 40 b3 37 3a 3f 7f ea e5 bf be 75 e4 bf
       3.0185797 0.7274124 -1.7962188 -1.7848432
000260 96 ff e1 bf 24 a7 be 3e 4b 53 63 bf 3e 0d 59 be
       -1.7656124 0.37236893 -0.8879897 -0.21196458
000270 e9 98 0f c0 bc 0b 96 3f 0a c9 f2 bf d3 3b b1 bd
       -2.243708 1.1722331 -1.8967602 -0.08653989
000280 46 2b 14 3f c4 25 d1 3f 41 06 b0 bf 05 98 9a c0
       0.5787853 1.633965 -1.3751909 -4.831057
000290 d3 2b da 3e ad 08 14 c0 c4 c8 e4 be 0d 11 ed 3f
       0.4261156 -2.3130295 -0.44684422 1.8520828
0002a0 c2 fa 18 c0 97 f1 8f bf b9 80 9b c0 fe f3 9b 3f
       -2.390305 -1.1245602 -4.859463 1.2183836
0002b0 98 7b ec 3f 12 7e 80 3f 4e 53 36 40 e5 35 86 c0
       1.8475218 1.0038474 2.8488345 -4.194079
0002c0 ab a8 5c 40 85 70 5f 40 47 bd 75 3f 6f 60 32 be
       3.4477947 3.4912426 0.9599194 -0.17419599
0002d0 02 bf 75 bf 4e a3 2a bf bb 16 6b bf 5c c7 6b 3f
       -0.9599458 -0.66655433 -0.9183156 0.92101073
0002e0 cb 8b 09 3e b7 51 09 3f 8d 5a 8e 3f 96 2a 9d 3f
       0.13432233 0.5364031 1.1121384 1.2278621
0002f0 8e 66 5d 3f 44 5f a5 3d a0 25 ce bd ed 70 b8 be
       0.8648461 0.08074811 -0.1006577 -0.36023656
000300 7d 56 94 3e b7 2d f2 bf 88 cc e2 3f 69 d5 1b 3f
       0.28972235 -1.8920201 1.7718668 0.60872513
000310 ac 86 94 bf 18 00 2d 3d da ef 23 40 5f 5d 84 c0
       -1.1603599 0.042236418 2.5615144 -4.136398
000320 6b e3 22 40 d7 4d 86 bf d1 6e 49 3f 44 96 90 bf
       2.5451305 -1.0492505 0.7868472 -1.1295857
000330 8f cc c8 bf a1 e6 ff bf de 6c a4 3e e4 ef 9b 3e
       -1.5687426 -1.9992257 0.3211431 0.3045646
000340 86 40 2f c0 4c fd 90 be f8 cd c2 bf c3 f5 1b bf
       -2.7383132 -0.2831825 -1.5219107 -0.6092188
000350 e8 ba 47 3f c3 e6 ec 3e fa 9c ec bf 8d 0d 4d c0
       0.7801957 0.46269807 -1.8485405 -3.203952
000360 88 f8 48 bf 78 1c aa 3f ba b9 71 bc ad 38 11 c0
       -0.7850423 1.3289938 -0.014753753 -2.2690842
000370 ec 0d 81 bf dc de 9a 3f 6c e1 5d c0 6c 0a cd 3f
       -1.0082374 1.2099261 -3.4668837 1.6018806
000380 58 96 d2 be b9 61 a1 3e 26 5b 13 c0 c9 97 57 3f
       -0.41130328 0.3151987 -2.3024383 0.8421598
000390 c5 4c 85 bf 56 f8 2e bf 7a ad f8 bf 67 16 b3 3f
       -1.0414053 -0.6834768 -1.9427941 1.3991212
0003a0 8c 29 dd 3e a6 f9 7a 3f 94 f9 f7 bf 20 c6 16 40
       0.4319576 0.98037183 -1.937304 2.3558426
0003b0 56 ee 60 40 df fe 94 3f 31 55 04 be 86 1c 17 3e
       3.5145469 1.164028 -0.12923123 0.14756975
0003c0 95 40 14 40 70 36 be 3f 3a 78 e1 bf 71 4a 5d 3f
       2.3164418 1.4860363 -1.7614815 0.86441714
0003d0 77 81 7b 3f ac 4d 8f 3e 3c 18 66 3f 58 a0 10 40
       0.9824442 0.27988946 0.8988073 2.2597866
0003e0 e8 23 86 3f 87 8e f2 be 71 a6 6a 40 fd c5 67 bf
       1.0479708 -0.47374365 3.6664088 -0.9053648
0003f0 04 93 80 3f 07 3c 3e bf 20 56 1a 3e 7e 0b 4b bf
       1.0044866 -0.74310344 0.15071917 -0.7931441

output_mask f4 [32]
000000 00 00 80 3f 00 00 80 3f 00 00 80 3f 00 00 80 3f
       1.0 1.0 1.0 1.0
000010 00 00 80 3f 00 00 80 3f 00 00 80 3f 00 00 80 3f
       1.0 1.0 1.0 1.0
000020 00 00 80 3f 00 00 80 3f 00 00 80 3f 00 00 80 3f
       1.0 1.0 1.0 1.0
000030 00 00 80 3f 00 00 80 3f 00 00 80 3f 00 00 80 3f
       1.0 1.0 1.0 1.0
000040 00 00 80 3f 00 00 80 3f 00 00 80 3f 00 00 80 3f
       1.0 1.0 1.0 1.0
000050 00 00 80 3f 00 00 80 3f 00 00 80 3f 00 00 80 3f
       1.0 1.0 1.0 1.0
000060 00 00 80 3f 00 00 80 3f 00 00 80 3f 00 00 80 3f
       1.0 1.0 1.0 1.0
000070 00 00 80 3f 00 00 80 3f 00 00 80 3f 00 00 80 3f
       1.0 1.0 1.0 1.0

weight f4 [8, 8]
000000 8f 43 31 3f d7 e6 04 c1 48 41 1a c0 8c 35 a1 3f
       0.6924371 -8.306357 -2.4102345 1.2594466
000010 48 b1 16 40 c2 be 7f 3f 0b c2 d9 bf 07 f1 5e 3f
       2.3545704 0.9990045 -1.7012342 0.8708653
000020 0b 7c 90 40 d2 f8 4a 3f e5 dc c6 bf f5 86 50 bf
       4.515142 0.7928592 -1.5536162 -0.8145593
000030 4b 93 cd bf 78 41 4e 3e 39 37 bc c0 d5 62 cd 3f
       -1.6060575 0.20142162 -5.881741 1.6045786
000040 2c e6 7d 40 7a 32 93 3f 8a 5f 03 40 a8 1c e7 3c
       3.9671736 1.1499779 2.0527062 0.028211907
000050 d4 7d f4 3f ba d4 73 40 28 2e aa 3f 98 e7 0e 40
       1.91009 3.8098588 1.3295336 2.2328854
000060 21 ca 3f bf 81 82 c2 3e b9 39 17 40 c7 2d b0 3e
       -0.749178 0.37990192 2.362898 0.34409925
000070 8e ea 6e c0 ff 28 03 3f e6 91 02 40 8f 96 10 40
       -3.733066 0.5123443 2.040155 2.2591894
000080 97 0b 3b c0 50 ec 3e 3e 04 5e 16 3e 3b 32 2b c0
       -2.9225824 0.18644834 0.14684302 -2.6749408
000090 da 19 06 be 3a 17 fa 3e 1c 6d cd 3f 5a e0 cb be
       -0.13095799 0.48845845 1.6048923 -0.39819604
0000a0 2f c4 6e c0 7d 97 19 bf 6b 3a ef 3f b6 fc f7 bc
       -3.730724 -0.5999678 1.8689703 -0.03027187
0000b0 04 f7 ee be 84 90 0c be 66 c5 cb bf e7 2a bb bf
       -0.46672833 -0.13727003 -1.5919616 -1.4622468
0000c0 c8 d5 31 3e 19 d1 8b bf 41 d4 51 be 2f 73 1d bc
       0.17366707 -1.0923187 -0.20491125 -0.009609981
0000d0 0f 16 44 bc e4 bf 1c c0 b8 82 8f 3f 63 f0 2c c0
       -0.01196815 -2.449212 1.1211767 -2.702172
0000e0 84 36 ab 3e 8e b8 3e bf d4 5a 90 3f aa 5e d9 be
       0.3344003 -0.7450036 1.1277719 -0.42455035
0000f0 6d a8 7b 3f 55 fa 01 c0 4d e2 35 3e f9 ee 4c be
       0.9830387 -2.030904 0.17762108 -0.20013036

weight f4 [8, 96]
000000 77 41 7a 3f f4 39 fe 3f 99 fc 16 be ff f8 45 c0
       0.9775614 1.9861436 -0.14744796 -3.0933225
000010 23 61 ef 3f 7e 1a ef be 58 56 f3 bd 8e 68 5f c0
       1.8701519 -0.466999 -0.11881703 -3.4907565
000020 02 51 1d c0 78 75 8c 3f 9d d3 8d bf aa eb 35 c0
       -2.4580693 1.0973349 -1.1080204 -2.8425088
000030 46 bb c4 3f e5 23 47 3e 60 96 67 3e 9a 40 93 40
       1.5369651 0.19447286 0.22615957 4.601636
000040 73 b4 54 3f 16 8a 3b 40 df ba 03 bf 12 b1 d3 bf
       0.83087844 2.930303 -0.5145702 -1.6538413
000050 5d 90 05 40 ef 9d a2 bf 86 fc 68 3f b4 9b 11 be
       2.0869362 -1.2704448 0.9101032 -0.14219552
000060 ed 34 2a bf 56 64 69 3f 7a c1 af 3e 32 43 21 40
       -0.6648701 0.91168725 0.34327298 2.5197263
000070 da c4 40 3f 94 ee 66 40 3c 23 89 bd f2 45 32 bf
       0.7530037 3.6083117 -0.066961735 -0.6963798
000080 f3 4d c3 3e ef b6 ea bf 0c 04 bf bf d8 cf 8e bf
       0.38145408 -1.8337077 -1.492311 -1.1157179
000090 6d df da 3f bf f2 2e c0 1f 7a 0b 3e 9d 1e 0f c0
       1.7099434 -2.733566 0.13620804 -2.2362435
0000a0 0f 7b 02 c0 49 8d 28 c0 f9 5d 3f c0 5f f5 93 bf
       -2.038761 -2.6336234 -2.9901106 -1.1559256
0000b0 0e 8b c8 3f ed a5 99 3f 7f ea 54 be 21 d0 1b 3f
       1.5667436 1.2003762 -0.20792578 0.60864455
0000c0 87 56 10 3f 82 4e 97 3e b1 76 21 c0 c6 d0 08 40
       0.5638203 0.29552084 -2.5228693 2.1377425
0000d0 20 14 80 bf 29 0c 8f 3e 9d aa 81 bf 2e 37 08 3f
       -1.0006142 0.27938965 -1.0130192 0.532092
0000e0 37 1a c5 3f 93 a3 b2 3d c3 bb 64 3f a5 1a ce bf
       1.5398625 0.087226056 0.89349 -1.6101881
0000f0 0b de 8b 3f 11 c4 19 40 0d 9c 9a 3e a6 fc 25 40
       1.0927137 2.402592 0.30197182 2.5935454
000100 c6 31 6f bf 79 ea b5 3e cc d8 1b 3f bb c3 35 40
       -0.93435323 0.3553045 0.6087768 2.8400714
000110 fd 76 82 bf 40 ca 73 bf 71 79 9e bf a0 c2 67 be
       -1.0192562 -0.95230484 -1.2380811 -0.22632837
000120 db 44 d4 bf cd c2 cc be 6d c6 cb 3e b6 a6 e0 bf
       -1.6583513 -0.3999237 0.39799824 -1.7550876
000130 29 21 64 3f 3d 5b b3 3f f7 4d 2b 3f 7d 01 d6 3f
       0.891131 1.4012219 0.6691584 1.6719204
000140 6e 25 ec 3f 15 f4 c0 bf 6c 77 64 40 e4 00 43 c0
       1.8448923 -1.5074488 3.569789 -3.0469294
000150 7b 2b 96 bf e3 15 b3 be 57 b7 e7 be 99 f5 7c bf
       -1.1732019 -0.34977636 -0.45257065 -0.9881225
000160 a5 06 02 40 5d 6b 5f bf 58 7d 56 3f 89 8d cb 3e
       2.0316556 -0.872732 0.8378501 0.3975642
000170 6c 35 91 3f 1c c1 d1 bf b0 19 b9 3f a2 46 a0 3f
       1.1344428 -1.6387057 1.4460964 1.2521555
000180 ac 58 9e bf d8 f4 3b 40 ec 19 40 c0 bb 0b 64 bf
       -1.237081 2.936819 -3.0015821 -0.890804
000190 70 a0 d9 3f 38 ec 3e c0 46 32 db 3f df c8 24 40
       1.7002087 -2.9831676 1.7124717 2.5747602
0001a0 55 7a 9e 3f d3 dd 28 3f 19 d8 33 bf 65 a4 a0 bf
       1.2381083 0.65963477 -0.70251614 -1.2550169
0001b0 f2 c4 89 3f 79 6e 1d c0 9a 92 a4 3f e7 af 50 bf
       1.0763228 -2.4598677 1.2857239 -0.81518406
0001c0 23 5e 1e c0 4a 75 a8 bf 10 56 f5 3f cc 24 56 3f
       -2.4744956 -1.3160794 1.9166889 0.836499
0001d0 e7 29 87 3f 5b 30 18 3f f9 64 1d 40 38 76 8e bf
       1.0559663 0.59448785 2.459288 -1.1129827
0001e0 0a 62 1c c0 78 8a 6e c0 a6 ba b8 c0 fd 75 df bf
       -2.4434838 -3.7272015 -5.772784 -1.7457882
0001f0 ee 1d 94 3f 8f c8 b6 be fe ca bf 40 36 ca 34 3f
       1.1571634 -0.3569989 5.9935293 0.7062105
000200 f9 ad 69 bf a8 51 cc 3e c1 50 3e 40 a2 06 88 3f
       -0.91281086 0.3990605 2.9736788 1.0627024
000210 65 2b ca bf 5d 57 2e 40 e7 06 aa be b8 ef ea bf
       -1.5794493 2.7240822 -0.3320839 -1.8354406
000220 a3 d5 06 be 8b 52 0f be 85 92 99 bf 18 22 3c 3f
       -0.13167433 -0.13996331 -1.1997839 0.7348952
000230 1b 28 7c 40 fa 2c 7a bf aa fd 2d bf de 3e 44 40
       3.9399478 -0.9772488 -0.67965186 3.066337
000240 09 11 63 40 0d 1f 82 3f d1 8c 48 c0 c6 96 9b 3f
       3.5479147 1.0165726 -3.1335948 1.2155387
000250 67 6f 39 3e c3 e8 4a bf 6a 06 89 c0 e0 d7 fc bf
       0.18108903 -0.79261416 -4.282033 -1.975338
000260 b1 c7 08 c0 77 fc 96 40 ab 59 06 c0 af 65 23 40
       -2.1371882 4.7183185 -2.099223 2.5530813
000270 7c f2 83 40 c0 57 8f 40 3a 39 88 40 ad 7c 47 3e
       4.12335 4.4794617 4.2569857 0.19481154
000280 27 ce ac 3f 83 41 a1 bf ea d3 09 40 83 86 b6 bf
       1.3500413 -1.2598118 2.1535592 -1.42598
000290 e7 ce 12 40 ce 55 4f c0 15 0f 97 3e 92 c2 4d 3f
       2.2938783 -3.239612 0.29503694 0.80375016
0002a0 35 c4 82 c0 5b ad c8 c0 9e 25 cf 3e c5 bd 84 3f
       -4.086451 -6.2711616 0.40458387 1.0370413
0002b0 07 a6 77 bf 50 2a fb 3d 10 ca a6 3f ce a1 06 c0
       -0.9673771 0.1226393 1.3030415 -2.1036258
0002c0 26 fa 69 bf cb f5 ac bf 1f 74 21 c0 8b 62 85 be
       -0.9139732 -1.351251 -2.5227125 -0.26051745
0002d0 96 c8 62 bf eb c6 03 c0 7b 49 14 bf f7 e7 4c c0
       -0.8858732 -2.059016 -0.5792462 -3.201658
0002e0 ac 2b 88 3f 18 41 a9 bf ab 7e 95 bf c2 e0 fc 3f
       1.0638328 -1.322299 -1.1679281 1.9756091
0002f0 8c fe 3d bf 3a 68 20 bf 8d d0 8e 3f 5a 65 0b c0
       -0.7421653 -0.6265904 1.1157395 -2.178061
000300 39 9a ef bf c6 e6 06 40 20 44 4a 3f ae f1 77 3f
       -1.871894 2.1078353 0.790102 0.9685315
000310 27 e4 dc 3f 45 c5 5b c0 b2 4e 66 3f e6 91 81 40
       1.7257127 -3.4339154 0.8996383 4.04906
000320 35 97 e4 bf d4 d0 b2 3f 24 c7 0c 40 1a b7 ee be
       -1.7858645 1.3969979 2.1996546 -0.4662407
000330 a8 d0 20 40 4f 1c fb bf 8d 79 65 c0 95 db c1 bf
       2.5127354 -1.9618014 -3.5855439 -1.5145136
000340 fd d2 3f 3f 87 f9 73 bf 0e ca 59 be a8 1c 39 3f
       0.7493132 -0.95302624 -0.21268484 0.7230935
000350 c4 86 b8 3f cf be 0a 3d 2d 52 cc 3f aa d1 a7 3f
       1.4416127 0.033873376 1.5962578 1.3110859
000360 6e 13 0f bf a3 db 33 bf 75 53 c9 3e d2 35 88 c0
       -0.5588902 -0.70257014 0.39321485 -4.25657
000370 81 9c e5 3f 71 ac 69 3f de fb 98 be 1d 3e e3 bf
       1.7938386 0.9127875 -0.2987966 -1.775333
000380 34 c5 c4 bf 58 fb b8 bf 30 42 2f bf f2 93 5d 40
       -1.5372682 -1.4451704 -0.6846037 3.4621549
000390 04 36 5b bf 94 e2 d0 bf e2 4e 25 40 5b 6c e0 3f
       -0.85629296 -1.6319146 2.5829396 1.7533067
0003a0 d4 be d5 be f6 b3 2a bf 43 9b 9e be ca 1d 3f 3f
       -0.41747153 -0.6668085 -0.3097783 0.7465483
0003b0 d5 7e 80 40 82 10 6a bf 62 9c d2 bf da 15 2d 3f
       4.0154824 -0.9143144 -1.6453974 0.6761147
0003c0 a0 c5 d5 3d ee 37 ee be d9 8b 55 40 3b 94 c3 3e
       0.104380846 -0.46527046 3.3366606 0.38199028
0003d0 93 e8 55 40 6f 42 e7 bf 18 d6 b8 3e fe 7e 0a c0
       3.3423202 -1.8067149 0.3610084 -2.164001
0003e0 a2 26 50 bf 39 2a bd 3e 18 83 65 3e 21 e2 38 40
       -0.8130895 0.36946276 0.2241329 2.8888018
0003f0 b1 14 2c 40 2b 4c f0 3f 3c f0 3e 3f 09 98 44 3f
       2.688763 1.8773245 0.7458532 0.7679449

output_mask f4 [288]
000000 00 00 80 3f 00 00 80 3f 00 00 80 3f 00 00 80 3f
       1.0 1.0 1.0 1.0
000010 00 00 80 3f 00 00 80 3f 00 00 80 3f 00 00 80 3f
       1.0 1.0 1.0 1.0
000020 00 00 80 3f 00 00 80 3f 00 00 80 3f 00 00 80 3f
       1.0 1.0 1.0 1.0
000030 00 00 80 3f 00 00 80 3f 00 00 80 3f 00 00 80 3f
       1.0 1.0 1.0 1.0
000040 00 00 80 3f 00 00 80 3f 00 00 80 3f 00 00 80 3f
       1.0 1.0 1.0 1.0
000050 00 00 80 3f 00 00 80 3f 00 00 80 3f 00 00 80 3f
       1.0 1.0 1.0 1.0
000060 00 00 80 3f 00 00 80 3f 00 00 80 3f 00 00 80 3f
       1.0 1.0 1.0 1.0
000070 00 00 80 3f 00 00 80 3f 00 00 80 3f 00 00 80 3f
       1.0 1.0 1.0 1.0
000080 00 00 80 3f 00 00 80 3f 00 00 80 3f 00 00 80 3f
       1.0 1.0 1.0 1.0
000090 00 00 80 3f 00 00 80 3f 00 00 80 3f 00 00 80 3f
       1.0 1.0 1.0 1.0
0000a0 00 00 80 3f 00 00 80 3f 00 00 80 3f 00 00 80 3f
       1.0 1.0 1.0 1.0
0000b0 00 00 80 3f 00 00 80 3f 00 00 80 3f 00 00 80 3f
       1.0 1.0 1.0 1.0
0000c0 00 00 80 3f 00 00 80 3f 00 00 80 3f 00 00 80 3f
       1.0 1.0 1.0 1.0
0000d0 00 00 80 3f 00 00 80 3f 00 00 80 3f 00 00 80 3f
       1.0 1.0 1.0 1.0
0000e0 00 00 80 3f 00 00 80 3f 00 00 80 3f 00 00 80 3f
       1.0 1.0 1.0 1.0
0000f0 00 00 80 3f 00 00 80 3f 00 00 80 3f 00 00 80 3f
       1.0 1.0 1.0 1.0
000100 00 00 80 3f 00 00 80 3f 00 00 80 3f 00 00 80 3f
       1.0 1.0 1.0 1.0
000110 00 00 80 3f 00 00 80 3f 00 00 80 3f 00 00 80 3f
       1.0 1.0 1.0 1.0
000120 00 00 80 3f 00 00 80 3f 00 00 80 3f 00 00 80 3f
       1.0 1.0 1.0 1.0
000130 00 00 80 3f 00 00 80 3f 00 00 80 3f 00 00 80 3f
       1.0 1.0 1.0 1.0
000140 00 00 80 3f 00 00 80 3f 00 00 80 3f 00 00 80 3f
       1.0 1.0 1.0 1.0
000150 00 00 80 3f 00 00 80 3f 00 00 80 3f 00 00 80 3f
       1.0 1.0 1.0 1.0
000160 00 00 80 3f 00 00 80 3f 00 00 80 3f 00 00 80 3f
       1.0 1.0 1.0 1.0
000170 00 00 80 3f 00 00 80 3f 00 00 80 3f 00 00 80 3f
       1.0 1.0 1.0 1.0
000180 00 00 80 3f 00 00 80 3f 00 00 80 3f 00 00 80 3f
       1.0 1.0 1.0 1.0
000190 00 00 80 3f 00 00 80 3f 00 00 80 3f 00 00 80 3f
       1.0 1.0 1.0 1.0
0001a0 00 00 80 3f 00 00 80 3f 00 00 80 3f 00 00 80 3f
       1.0 1.0 1.0 1.0
0001b0 00 00 80 3f 00 00 80 3f 00 00 80 3f 00 00 80 3f
       1.0 1.0 1.0 1.0
0001c0 00 00 80 3f 00 00 80 3f 00 00 80 3f 00 00 80 3f
       1.0 1.0 1.0 1.0
0001d0 00 00 80 3f 00 00 80 3f 00 00 80 3f 00 00 80 3f
       1.0 1.0 1.0 1.0
0001e0 00 00 80 3f 00 00 80 3f 00 00 80 3f 00 00 80 3f
       1.0 1.0 1.0 1.0
0001f0 00 00 80 3f 00 00 80 3f 00 00 80 3f 00 00 80 3f
       1.0 1.0 1.0 1.0
000200 00 00 80 3f 00 00 80 3f 00 00 80 3f 00 00 80 3f
       1.0 1.0 1.0 1.0
000210 00 00 80 3f 00 00 80 3f 00 00 80 3f 00 00 80 3f
       1.0 1.0 1.0 1.0
000220 00 00 80 3f 00 00 80 3f 00 00 80 3f 00 00 80 3f
       1.0 1.0 1.0 1.0
000230 00 00 80 3f 00 00 80 3f 00 00 80 3f 00 00 80 3f
       1.0 1.0 1.0 1.0
000240 00 00 80 3f 00 00 80 3f 00 00 80 3f 00 00 80 3f
       1.0 1.0 1.0 1.0
000250 00 00 80 3f 00 00 80 3f 00 00 80 3f 00 00 80 3f
       1.0 1.0 1.0 1.0
000260 00 00 80 3f 00 00 80 3f 00 00 80 3f 00 00 80 3f
       1.0 1.0 1.0 1.0
000270 00 00 80 3f 00 00 80 3f 00 00 80 3f 00 00 80 3f
       1.0 1.0 1.0 1.0
000280 00 00 80 3f 00 00 80 3f 00 00 80 3f 00 00 80 3f
       1.0 1.0 1.0 1.0
000290 00 00 80 3f 00 00 80 3f 00 00 80 3f 00 00 80 3f
       1.0 1.0 1.0 1.0
0002a0 00 00 80 3f 00 00 80 3f 00 00 80 3f 00 00 80 3f
       1.0 1.0 1.0 1.0
0002b0 00 00 80 3f 00 00 80 3f 00 00 80 3f 00 00 80 3f
       1.0 1.0 1.0 1.0
0002c0 00 00 80 3f 00 00 80 3f 00 00 80 3f 00 00 80 3f
       1.0 1.0 1.0 1.0
0002d0 00 00 80 3f 00 00 80 3f 00 00 80 3f 00 00 80 3f
       1.0 1.0 1.0 1.0
0002e0 00 00 80 3f 00 00 80 3f 00 00 80 3f 00 00 80 3f
       1.0 1.0 1.0 1.0
0002f0 00 00 80 3f 00 00 80 3f 00 00 80 3f 00 00 80 3f
       1.0 1.0 1.0 1.0
000300 00 00 80 3f 00 00 80 3f 00 00 80 3f 00 00 80 3f
       1.0 1.0 1.0 1.0
000310 00 00 80 3f 00 00 80 3f 00 00 80 3f 00 00 80 3f
       1.0 1.0 1.0 1.0
000320 00 00 80 3f 00 00 80 3f 00 00 80 3f 00 00 80 3f
       1.0 1.0 1.0 1.0
000330 00 00 80 3f 00 00 80 3f 00 00 80 3f 00 00 80 3f
       1.0 1.0 1.0 1.0
000340 00 00 80 3f 00 00 80 3f 00 00 80 3f 00 00 80 3f
       1.0 1.0 1.0 1.0
000350 00 00 80 3f 00 00 80 3f 00 00 80 3f 00 00 80 3f
       1.0 1.0 1.0 1.0
000360 00 00 80 3f 00 00 80 3f 00 00 80 3f 00 00 80 3f
       1.0 1.0 1.0 1.0
000370 00 00 80 3f 00 00 80 3f 00 00 80 3f 00 00 80 3f
       1.0 1.0 1.0 1.0
000380 00 00 80 3f 00 00 80 3f 00 00 80 3f 00 00 80 3f
       1.0 1.0 1.0 1.0
000390 00 00 80 3f 00 00 80 3f 00 00 80 3f 00 00 80 3f
       1.0 1.0 1.0 1.0
0003a0 00 00 80 3f 00 00 80 3f 00 00 80 3f 00 00 80 3f
       1.0 1.0 1.0 1.0
0003b0 00 00 80 3f 00 00 80 3f 00 00 80 3f 00 00 80 3f
       1.0 1.0 1.0 1.0
0003c0 00 00 80 3f 00 00 80 3f 00 00 80 3f 00 00 80 3f
       1.0 1.0 1.0 1.0
0003d0 00 00 80 3f 00 00 80 3f 00 00 80 3f 00 00 80 3f
       1.0 1.0 1.0 1.0
0003e0 00 00 80 3f 00 00 80 3f 00 00 80 3f 00 00 80 3f
       1.0 1.0 1.0 1.0
0003f0 00 00 80 3f 00 00 80 3f 00 00 80 3f 00 00 80 3f
       1.0 1.0 1.0 1.0

weight f4 [5120]
000000 0f 61 bc bf 3f 49 51 bf 38 d2 99 3c 34 9d 28 c0
       -1.471712 -0.8175239 0.018776998 -2.634595
000010 d6 53 ae 3f b2 ff a4 bf 48 9a 06 40 00 8d 6f bf
       1.3619335 -1.2890532 2.1031666 -0.93574524
000020 01 fc bf bf 5b c2 16 3f e4 23 a7 3f 50 c0 11 be
       -1.499878 0.5889031 1.3057828 -0.14233518
000030 73 68 ee bf f6 cc 87 bf 43 fc da 3e c5 ca 3d c0
       -1.8625625 -1.0609424 0.42770585 -2.965501
000040 dc e7 9f bf 54 c5 0d 40 1d 84 c5 3e 68 5a 18 c0
       -1.2492633 2.215169 0.38577357 -2.380518
000050 b3 91 06 c0 39 21 b1 3f e7 1a 68 3e 6d 97 e9 3e
       -2.1026428 1.3838264 0.22666512 0.4562334
000060 c6 6c d1 3f a1 fa 20 3f 26 24 25 40 ce 34 11 40
       1.636132 0.6288243 2.5803313 2.268848
000070 f1 12 15 bf 01 01 80 3f 74 a3 33 3f 42 bd 12 bf
       -0.5823203 1.0000306 0.70171285 -0.57320035
000080 9a a9 8f 40 1f 66 98 c0 80 dc c2 be f4 d8 d5 bf
       4.4894533 -4.762466 -0.38058853 -1.6706834
000090 b8 fb b1 be 6a c0 7f c0 75 58 86 bf ba 27 88 c0
       -0.3476236 -3.996119 -1.0495745 -4.2548494
0000a0 55 8f 59 c0 63 e7 a3 bf 6e ba 03 c0 fe bb be 40
       -3.3993733 -1.2804989 -2.0582538 5.9604483
0000b0 65 38 44 40 58 eb 31 40 1e 54 fb 3f 71 e9 dd bf
       3.065942 2.7799892 1.9635046 -1.7336866
0000c0 45 75 21 40 d0 bd eb 3f 47 25 9e bf ce b7 1a 40
       2.5227826 1.8417301 -1.2355126 2.4174685
0000d0 41 88 9a bf 9b 93 35 40 9c b5 5a 40 6d c6 da bf
       -1.2072831 2.8371341 3.4173346 -1.7091805
0000e0 a7 6a bd 3f 8d a5 31 c0 02 06 4b bf e4 84 4a 40
       1.4798173 -2.7757294 -0.7930604 3.164361
0000f0 f9 c5 7f c0 62 1c 58 bf 88 ff 70 c0 5c 9d e1 3e
       -3.9964583 -0.8441831 -3.7655964 0.44065368
000100 52 a3 f4 be 56 15 53 40 17 26 ce bf c0 fd 0a 40
       -0.47780854 3.2981772 -1.6105374 2.1717377
000110 9a b0 3c c0 fb 1e 74 40 ff 89 f0 3f 8e 50 ef 3f
       -2.948279 3.814391 1.8792113 1.8696458
000120 f2 93 85 bf 32 37 00 40 ee 0c 9f 3f 0f 0c e6 3f
       -1.0435774 2.0033689 1.2425821 1.797243
000130 51 53 8d bf 5b ea b6 bf 52 f2 c2 bf 1c c5 1e bf
       -1.1041051 -1.429027 -1.52302 -0.62019515
000140 53 b6 62 3f b7 a5 15 40 5c 4a 02 40 8a 36 0a c0
       0.88559455 2.3382394 2.0357885 -2.1595788
000150 3d a2 76 40 a7 66 93 3f d2 1b c6 bf 37 6e bc 3e
       3.8536522 1.1515702 -1.547724 0.36802837
000160 45 3e e7 3f f1 b6 d3 bf c8 cd 08 bf 82 6e cf 3d
       1.8065878 -1.6540204 -0.53439 0.101284996
000170 e3 64 17 c0 7e 27 13 3f 29 7c de 3f fb 53 b6 3f
       -2.3655326 0.57482135 1.7381641 1.4244379
000180 8f 4a 47 c0 b8 d7 be be af 7f c2 bf d6 c8 c2 40
       -3.1139257 -0.37273955 -1.5195216 6.087016
000190 b8 08 23 3e 65 03 b5 bf 65 03 ae bf ae 59 a8 3f
       0.15921295 -1.4141661 -1.3594786 1.3152368
0001a0 e8 23 37 40 30 ea 65 bf be dc 95 c0 af 16 06 c0
       2.8615665 -0.89810467 -4.683196 -2.0951345
0001b0 bd 2a e0 bd 82 e4 08 3d ab 67 21 bf e0 d4 06 40
       -0.10945652 0.033421047 -0.6304881 2.1067429
0001c0 95 99 a8 bf 1e 41 e5 be 92 b3 ff 3f 38 86 9b 3f
       -1.317187 -0.44776243 1.9976676 1.2150335
0001d0 e5 6f 92 3f be 68 26 3f e8 35 9e bf 6f ca 08 40
       1.1440398 0.65003574 -1.2360201 2.1373556
0001e0 28 ed 22 3f ab 2b fb bd 0a cc 9e bf 06 ed ac bf
       0.6364312 -0.122641884 -1.2406018 -1.3509834
0001f0 74 0e 68 c0 4b a1 2b 40 3e a7 30 be 03 a2 8b 3f
       -3.6258821 2.6817195 -0.17251298 1.0908817
000200 b3 75 3d 40 a4 57 4e 40 4d f5 83 bd c2 79 90 40
       2.9603088 3.2240992 -0.06443272 4.514863
000210 6c ce 10 41 e9 dc 16 bf 12 f9 13 40 0e 6d 54 40
       9.050396 -0.5893083 2.312077 3.3191562
000220 ce cb 16 c0 39 c4 85 c0 cd 4f dc 40 f0 04 13 c0
       -2.3561893 -4.180203 6.8847413 -2.2971764
000230 04 55 35 40 c0 60 89 c0 eb 8d d1 be 9f 27 1f 40
       2.833314 -4.2930603 -0.40928587 2.4867933
000240 0b 43 56 c0 c1 b9 38 40 84 c1 b5 3f b2 51 d2 c0
       -3.347842 2.8863375 1.4199681 -6.5724726
000250 f1 61 07 bf d1 40 e5 c0 c6 b3 25 3f 90 cc 99 c0
       -0.5288382 -7.164162 0.6472744 -4.806221
000260 84 68 7a 3f 25 24 11 c0 11 4d 03 3e 62 9f 71 3f
       0.9781573 -2.267831 0.12822367 0.94383824
000270 d5 e8 7b 3f b2 b3 d7 3e ac 7f 34 bf 23 19 50 bf
       0.9840215 0.42129284 -0.7050731 -0.81288356
000280 ae 58 ed be 45 02 c4 be 23 2f ef 3f 8b 79 d6 40
       -0.4635672 -0.38282982 1.868626 6.702337
000290 e4 e7 1d c0 3e 2e 8d 40 fd 34 a9 3f 2f 32 09 3f
       -2.4672785 4.411895 1.3219296 0.535922
0002a0 82 7b a0 3f 32 46 40 40 e6 66 12 3f 0b 82 92 c0
       1.2537692 3.0042844 0.5718826 -4.5783744
0002b0 13 37 41 40 12 5a 76 40 bd 6e fe 3e df ad 39 c0
       3.0189865 3.8492475 0.49693862 -2.9012372
0002c0 48 37 61 bd b5 58 e7 bf 27 1e f8 3f aa 87 6d c0
       -0.05498436 -1.8073946 1.9384202 -3.7114053
0002d0 95 c1 cd be 04 85 dc 3f 7f 57 d6 3f ab 52 41 bf
       -0.40186754 1.7228093 1.6745452 -0.75516766
0002e0 bb 73 f1 3f 0f 1f 16 40 b0 ac 10 41 37 6b 53 be
       1.8863443 2.3456457 9.04216 -0.20646368
0002f0 66 bc 92 3f e3 1e 12 c0 c5 6c 02 40 2e 31 a1 40
       1.1463745 -2.2831352 2.0378888 5.0372534
000300 67 76 8b bf 03 90 02 3d 06 3e 3d bf 25 19 47 c0
       -1.0895509 0.03187562 -0.73922765 -3.1109097
000310 4c e6 78 bf 5a 64 27 bc a5 86 d4 3d 03 3d 6d c0
       -0.97226405 -0.010216797 0.10377244 -3.7068489
000320 ed d1 21 bf d0 86 c9 bd 3e 74 a2 3f 28 9b 57 3f
       -0.63210946 -0.098401666 1.2691724 0.84221125
000330 fc 8c f8 3e a8 b4 8e 3e 07 41 8d 3f 16 66 f6 bd
       0.48545063 0.27872205 1.103547 -0.1203119
000340 43 8a b1 bf 6e 3b f3 bf 1c 91 64 bf 9e e5 a3 bf
       -1.3870319 -1.9002512 -0.8928392 -1.2804449
000350 2c fd 5d bf 2b ef 5c 3f 43 52 76 bd d2 89 ce 3f
       -0.86714435 0.8630244 -0.060137045 1.613581
000360 7e 4d 21 40 4c dc 65 bf d5 25 0b 40 3a 55 47 3c
       2.5203547 -0.8978927 2.174184 0.012166316
000370 0c bc 2c bf 20 81 de bf 5a 1b cd bf e1 cb 82 3f
       -0.67474437 -1.7383156 -1.6023972 1.0218469
000380 de ee 3b c0 d0 1f 21 40 2d 30 2b 40 a0 59 3e c0
       -2.9364543 2.5175667 2.6748154 -2.9742203
000390 94 f6 2e 3f 54 c4 51 40 13 32 df c0 87 d2 34 c0
       0.68345 3.277608 -6.9748626 -2.8253496
0003a0 29 ee 6d 40 20 dc 09 c0 2b 44 e7 3f 62 ce ec bf
       3.7176611 -2.1540604 1.8067678 -1.8500483
0003b0 c2 e1 73 c0 ca 55 54 c0 59 94 f6 3f ba 2d 22 c0
       -3.8106542 -3.3177361 1.9264022 -2.534041
0003c0 f5 b1 65 40 d6 5d 9c 3f 2d 3d 88 3f 36 22 f7 bf
       3.5889866 1.2216136 1.0643669 -1.9307315
0003d0 52 22 09 40 02 ae e3 be f0 f7 04 40 b0 58 ac bf
       2.1427197 -0.44468695 2.077633 -1.3464565
0003e0 3c d6 05 40 d8 26 10 c0 4e 9f 44 bf 03 45 2d 40
       2.0912008 -2.2523708 -0.7680558 2.7073371
0003f0 71 9c 41 bf 45 67 34 c0 d0 f2 83 bf c2 f6 55 3f
       -0.75629336 -2.818803 -1.0308475 0.8357965

output_mask f4 [352]
000000 00 00 80 3f 00 00 80 3f 00 00 80 3f 00 00 80 3f
       1.0 1.0 1.0 1.0
000010 00 00 80 3f 00 00 80 3f 00 00 80 3f 00 00 80 3f
       1.0 1.0 1.0 1.0
000020 00 00 80 3f 00 00 80 3f 00 00 80 3f 00 00 80 3f
       1.0 1.0 1.0 1.0
000030 00 00 80 3f 00 00 80 3f 00 00 80 3f 00 00 80 3f
       1.0 1.0 1.0 1.0
000040 00 00 80 3f 00 00 80 3f 00 00 80 3f 00 00 80 3f
       1.0 1.0 1.0 1.0
000050 00 00 80 3f 00 00 80 3f 00 00 80 3f 00 00 80 3f
       1.0 1.0 1.0 1.0
000060 00 00 80 3f 00 00 80 3f 00 00 80 3f 00 00 80 3f
       1.0 1.0 1.0 1.0
000070 00 00 80 3f 00 00 80 3f 00 00 80 3f 00 00 80 3f
       1.0 1.0 1.0 1.0
000080 00 00 80 3f 00 00 80 3f 00 00 80 3f 00 00 80 3f
       1.0 1.0 1.0 1.0
000090 00 00 80 3f 00 00 80 3f 00 00 80 3f 00 00 80 3f
       1.0 1.0 1.0 1.0
0000a0 00 00 80 3f 00 00 80 3f 00 00 80 3f 00 00 80 3f
       1.0 1.0 1.0 1.0
0000b0 00 00 80 3f 00 00 80 3f 00 00 80 3f 00 00 80 3f
       1.0 1.0 1.0 1.0
0000c0 00 00 80 3f 00 00 80 3f 00 00 80 3f 00 00 80 3f
       1.0 1.0 1.0 1.0
0000d0 00 00 80 3f 00 00 80 3f 00 00 80 3f 00 00 80 3f
       1.0 1.0 1.0 1.0
0000e0 00 00 80 3f 00 00 80 3f 00 00 80 3f 00 00 80 3f
       1.0 1.0 1.0 1.0
0000f0 00 00 80 3f 00 00 80 3f 00 00 80 3f 00 00 80 3f
       1.0 1.0 1.0 1.0
000100 00 00 80 3f 00 00 80 3f 00 00 80 3f 00 00 80 3f
       1.0 1.0 1.0 1.0
000110 00 00 80 3f 00 00 80 3f 00 00 80 3f 00 00 80 3f
       1.0 1.0 1.0 1.0
000120 00 00 80 3f 00 00 80 3f 00 00 80 3f 00 00 80 3f
       1.0 1.0 1.0 1.0
000130 00 00 80 3f 00 00 80 3f 00 00 80 3f 00 00 80 3f
       1.0 1.0 1.0 1.0
000140 00 00 80 3f 00 00 80 3f 00 00 80 3f 00 00 80 3f
       1.0 1.0 1.0 1.0
000150 00 00 80 3f 00 00 80 3f 00 00 80 3f 00 00 80 3f
       1.0 1.0 1.0 1.0
000160 00 00 80 3f 00 00 80 3f 00 00 80 3f 00 00 80 3f
       1.0 1.0 1.0 1.0
000170 00 00 80 3f 00 00 80 3f 00 00 80 3f 00 00 80 3f
       1.0 1.0 1.0 1.0
000180 00 00 80 3f 00 00 80 3f 00 00 80 3f 00 00 80 3f
       1.0 1.0 1.0 1.0
000190 00 00 80 3f 00 00 80 3f 00 00 80 3f 00 00 80 3f
       1.0 1.0 1.0 1.0
0001a0 00 00 80 3f 00 00 80 3f 00 00 80 3f 00 00 80 3f
       1.0 1.0 1.0 1.0
0001b0 00 00 80 3f 00 00 80 3f 00 00 80 3f 00 00 80 3f
       1.0 1.0 1.0 1.0
0001c0 00 00 80 3f 00 00 80 3f 00 00 80 3f 00 00 80 3f
       1.0 1.0 1.0 1.0
0001d0 00 00 80 3f 00 00 80 3f 00 00 80 3f 00 00 80 3f
       1.0 1.0 1.0 1.0
0001e0 00 00 80 3f 00 00 80 3f 00 00 80 3f 00 00 80 3f
       1.0 1.0 1.0 1.0
0001f0 00 00 80 3f 00 00 80 3f 00 00 80 3f 00 00 80 3f
       1.0 1.0 1.0 1.0
000200 00 00 80 3f 00 00 80 3f 00 00 80 3f 00 00 80 3f
       1.0 1.0 1.0 1.0
000210 00 00 80 3f 00 00 80 3f 00 00 80 3f 00 00 80 3f
       1.0 1.0 1.0 1.0
000220 00 00 80 3f 00 00 80 3f 00 00 80 3f 00 00 80 3f
       1.0 1.0 1.0 1.0
000230 00 00 80 3f 00 00 80 3f 00 00 80 3f 00 00 80 3f
       1.0 1.0 1.0 1.0
000240 00 00 80 3f 00 00 80 3f 00 00 80 3f 00 00 80 3f
       1.0 1.0 1.0 1.0
000250 00 00 80 3f 00 00 80 3f 00 00 80 3f 00 00 80 3f
       1.0 1.0 1.0 1.0
000260 00 00 80 3f 00 00 80 3f 00 00 80 3f 00 00 80 3f
       1.0 1.0 1.0 1.0
000270 00 00 80 3f 00 00 80 3f 00 00 80 3f 00 00 80 3f
       1.0 1.0 1.0 1.0
000280 00 00 80 3f 00 00 80 3f 00 00 80 3f 00 00 80 3f
       1.0 1.0 1.0 1.0
000290 00 00 80 3f 00 00 80 3f 00 00 80 3f 00 00 80 3f
       1.0 1.0 1.0 1.0
0002a0 00 00 80 3f 00 00 80 3f 00 00 80 3f 00 00 80 3f
       1.0 1.0 1.0 1.0
0002b0 00 00 80 3f 00 00 80 3f 00 00 80 3f 00 00 80 3f
       1.0 1.0 1.0 1.0
0002c0 00 00 80 3f 00 00 80 3f 00 00 80 3f 00 00 80 3f
       1.0 1.0 1.0 1.0
0002d0 00 00 80 3f 00 00 80 3f 00 00 80 3f 00 00 80 3f
       1.0 1.0 1.0 1.0
0002e0 00 00 80 3f 00 00 80 3f 00 00 80 3f 00 00 80 3f
       1.0 1.0 1.0 1.0
0002f0 00 00 80 3f 00 00 80 3f 00 00 80 3f 00 00 80 3f
       1.0 1.0 1.0 1.0
000300 00 00 80 3f 00 00 80 3f 00 00 80 3f 00 00 80 3f
       1.0 1.0 1.0 1.0
000310 00 00 80 3f 00 00 80 3f 00 00 80 3f 00 00 80 3f
       1.0 1.0 1.0 1.0
000320 00 00 80 3f 00 00 80 3f 00 00 80 3f 00 00 80 3f
       1.0 1.0 1.0 1.0
000330 00 00 80 3f 00 00 80 3f 00 00 80 3f 00 00 80 3f
       1.0 1.0 1.0 1.0
000340 00 00 80 3f 00 00 80 3f 00 00 80 3f 00 00 80 3f
       1.0 1.0 1.0 1.0
000350 00 00 80 3f 00 00 80 3f 00 00 80 3f 00 00 80 3f
       1.0 1.0 1.0 1.0
000360 00 00 80 3f 00 00 80 3f 00 00 80 3f 00 00 80 3f
       1.0 1.0 1.0 1.0
000370 00 00 80 3f 00 00 80 3f 00 00 80 3f 00 00 80 3f
       1.0 1.0 1.0 1.0
000380 00 00 80 3f 00 00 80 3f 00 00 80 3f 00 00 80 3f
       1.0 1.0 1.0 1.0
000390 00 00 80 3f 00 00 80 3f 00 00 80 3f 00 00 80 3f
       1.0 1.0 1.0 1.0
0003a0 00 00 80 3f 00 00 80 3f 00 00 80 3f 00 00 80 3f
       1.0 1.0 1.0 1.0
0003b0 00 00 80 3f 00 00 80 3f 00 00 80 3f 00 00 80 3f
       1.0 1.0 1.0 1.0
0003c0 00 00 80 3f 00 00 80 3f 00 00 80 3f 00 00 80 3f
       1.0 1.0 1.0 1.0
0003d0 00 00 80 3f 00 00 80 3f 00 00 80 3f 00 00 80 3f
       1.0 1.0 1.0 1.0
0003e0 00 00 80 3f 00 00 80 3f 00 00 80 3f 00 00 80 3f
       1.0 1.0 1.0 1.0
0003f0 00 00 80 3f 00 00 80 3f 00 00 80 3f 00 00 80 3f
       1.0 1.0 1.0 1.0

weight f4 [9216]
000000 83 5e 34 bf 25 a7 49 3f 35 39 84 bd 2f 1a a4 be
       -0.70456713 0.7877067 -0.06456224 -0.32051226
000010 82 4b 6b 3f a8 33 6f bf 69 d1 6a be f2 b8 a8 3f
       0.9191209 -0.93438196 -0.22931446 1.3181441
000020 d6 c3 57 3f c7 a2 d5 bf 29 e3 3e be 08 f8 b0 3e
       0.84283197 -1.6690301 -0.18641342 0.34564233
000030 6d 75 72 3f 32 8d e0 be 2c a7 8e 3f 91 83 13 bf
       0.9471043 -0.43857723 1.1144767 -0.5762263
000040 05 54 d9 bf 18 d9 6b 3e c7 d0 e7 3f a1 ad 68 be
       -1.6978766 0.23032033 1.8110589 -0.22722484
000050 c5 34 aa 3e ef 47 18 bf 46 81 b6 3e ce e7 90 3e
       0.33243385 -0.5948476 0.35645503 0.28301853
000060 2e 14 c8 3f fc ba ca be 62 39 75 3f c6 7d 1d be
       1.5631158 -0.39595783 0.95790684 -0.1538001
000070 ca 80 9f 3f 4e ad 4d bf 13 df 2d 3f 6b 16 b9 bf
       1.2461178 -0.80342567 0.6791851 -1.4459966
000080 07 29 5d 3f f4 18 be bf c6 33 12 bf 62 99 73 bf
       0.8639073 -1.4851365 -0.5711025 -0.9515592
000090 54 60 83 3f a1 6b a1 bf 00 fc e9 bf 41 29 5c 3c
       1.0263772 -1.2610971 -1.8280029 0.01343757
0000a0 ed 25 c5 3d 10 98 2d 3e 6a ed 21 3f ac 1b 91 be
       0.096263744 0.16952538 0.6325289 -0.28341424
0000b0 4a a8 d6 3f 33 85 0a 40 89 04 f2 3e af 43 6c bf
       1.6770108 2.1643798 0.47269085 -0.92290777
0000c0 82 d9 82 be cc b9 d9 3e 9f 01 98 bf fb 12 d9 3f
       -0.2555657 0.42524564 -1.1875495 1.6958917
0000d0 4f 23 89 bf 2e 92 9d 3f c7 55 70 3f 80 bf 5d bf
       -1.07139 1.2310236 0.93880886 -0.8662033
0000e0 4e 8b 23 3e 40 e8 f8 3e 07 67 c0 bd 80 02 91 bf
       0.1597111 0.48614693 -0.09394651 -1.1328888
0000f0 67 6f 36 3f fe 9d 0f c0 11 8a 98 3f 37 89 a6 bf
       0.71263736 -2.244018 1.1917135 -1.3010625
000100 33 f8 dc 3e 13 a1 0c 3e 79 18 a1 3f 3a b6 25 bf
       0.4315811 0.1373332 1.2585593 -0.6473118
000110 e8 36 a0 bf bf 12 38 3f 43 c2 e0 3e b3 8a b9 be
       -1.2516756 0.71903604 0.4389821 -0.36238632
000120 02 5e 11 bf 13 49 ff 3f 70 59 c7 3e 86 d3 5b 3d
       -0.5678407 1.9944175 0.38935423 0.05366852
000130 a2 d8 2c be f0 61 a5 bf 93 3b 5a bf d9 f2 e0 3e
       -0.16879514 -1.2920513 -0.85247153 0.43935278
000140 11 96 71 bf e0 6b 56 bf bb 11 cf be 51 d5 64 be
       -0.9436961 -0.83758354 -0.40443215 -0.22346999
000150 92 db 85 3e ae 03 31 be 2d 18 5b 3f 93 38 13 3f
       0.2614408 -0.1728656 0.85583764 0.575082
000160 c7 cd e4 3e ac 73 5d 3d e6 7d 2b bf ba 5d 8c 3f
       0.44688246 0.05406539 -0.6698898 1.0966103
000170 3d 06 9a be 83 e5 ec be 3c e8 5d 3f 2a 3a 86 3e
       -0.30082884 -0.46268854 0.86682487 0.2621625
000180 03 52 90 3f db 46 2e bf 72 e5 f7 3f 93 61 cc bf
       1.1275028 -0.68076867 1.9366896 -1.5967277
000190 9a f9 b5 be 65 ed ad bd 14 b3 1f 3f d3 f0 90 3e
       -0.35541993 -0.08492545 0.62382627 0.28308734
0001a0 cf e1 ad be 95 2b 56 bf 5b 23 4a 3e cf 09 ee 3e
       -0.3396134 -0.8366025 0.1974005 0.46491858
0001b0 78 e2 6e 3f 80 b3 f1 3e 83 80 ed 3e fe 59 f8 be
       0.93314314 0.4720726 0.4638711 -0.4850616
0001c0 1b eb 27 40 08 f4 10 3d d3 4e db 3f 7b 8d 37 bf
       2.6237247 0.035388976 1.713343 -0.7170026
0001d0 ca 7c 0d bf 1a ea a3 bf 3e f2 a3 bf f6 1f 56 be
       -0.5526854 -1.2805817 -1.2808301 -0.2091063
0001e0 0f d5 12 3f 66 8e 30 be 52 2f 6e 3f 51 d1 c7 3f
       0.5735635 -0.1724182 0.93040955 1.5610753
0001f0 71 ce 22 be 6f d1 8e 3f d7 44 7b bd a6 ce e3 bf
       -0.15899064 1.1157664 -0.061344948 -1.7797439
000200 3b e3 f2 3e 5e df 51 3f 6c 06 01 c0 a9 cd 9a 3f
       0.47438988 0.81981456 -2.016017 1.2094012
000210 2c ce 86 bf 54 38 32 bf d0 18 cd 3e 55 23 9d bf
       -1.0531669 -0.696172 0.40057993 -1.2276407
000220 6a 8c 41 3f f2 ce c5 be b2 9f 04 40 4e f7 a9 40
       0.7560488 -0.3863445 2.072247 5.3114386
000230 07 3d c6 3f b3 44 94 be 07 65 3f bf 5d ef 0d bf
       1.5487374 -0.28958663 -0.7476353 -0.55443364
000240 fa e4 57 3e 28 0a 11 40 c9 bc d2 3e 9c f4 3d bf
       0.21083441 2.266245 0.41159657 -0.7420137
000250 f6 ff 12 3e 36 42 d4 40 71 a4 fe bf f5 08 3f 3f
       0.14355454 6.6330824 -1.9893934 0.7462304
000260 b2 fe 40 3f c2 df a4 3e 2c de 25 3f 00 04 0d 40
       0.75388634 0.32201964 0.6479213 2.2033691
000270 8b 89 8f 3f 7e f1 c2 bf e0 6b 47 3f 2a a8 c4 3f
       1.121385 -1.5229948 0.7789898 1.536382
000280 56 b4 05 3f 55 83 16 3f 82 ef 07 3f 7d a6 30 40
       0.52228296 0.58794147 0.53099835 2.7601616
000290 cc 0c 01 c0 9f 03 d0 bf f8 bf 03 bf 0e c3 c0 3e
       -2.016406 -1.6251105 -0.51464796 0.37648815
0002a0 a1 9d f0 3e f9 a9 52 bf b4 fe c3 bf 9a d2 66 bf
       0.4699526 -0.8229061 -1.5312104 -0.901651
0002b0 73 62 81 40 ea 73 f6 be 4b 9e 45 40 7e 94 26 3f
       4.0432677 -0.4813531 3.0877864 0.6507033
0002c0 c2 69 89 bf b1 f7 2f c0 5e 4f 6f 3f be af 8e 40
       -1.07354 -2.749493 0.9348048 4.458953
0002d0 f2 06 0f be 31 34 ea be ef 34 2d c0 db c9 f0 3f
       -0.13967493 -0.45742944 -2.7063558 1.8811601
0002e0 da 7c 57 40 cc 16 39 40 d6 ec d4 be f8 bd b2 40
       3.3669953 2.8920164 -0.4158694 5.5856895
0002f0 f3 19 a1 bf 61 5f 29 40 f6 ab fc 3f e2 f2 62 40
       -1.2586044 2.6464465 1.9739978 3.5460744
000300 0a 16 d7 3f 75 cb b0 bf 9a b5 12 be 1d 0e d2 3e
       1.6803601 -1.381209 -0.14327088 0.41026393
000310 2f b7 4e be df 07 01 40 f5 ee e7 bf 5e 63 6e bf
       -0.20187066 2.0161054 -1.8119799 -0.9312037
000320 92 e8 01 c0 4d 35 f3 3f 00 79 2d c0 29 df 46 c0
       -2.02982 1.9000641 -2.7105103 -3.1073706
000330 16 38 49 bf ca 72 7f 3f cb 31 df be 77 79 b7 3b
       -0.78601205 0.9978453 -0.43592677 0.0055991965
000340 8a 45 39 bf 54 f4 2b 3e 6f 9a 49 be 90 85 49 40
       -0.72371733 0.16792423 -0.19687818 3.148777
000350 11 b0 1b 40 89 90 94 bf df 4f 1e 40 a4 42 58 3f
       2.4326212 -1.1606609 2.473625 0.84476686
000360 3f 21 d5 3f 50 1b ae bf 4b 51 23 3f 79 6b a7 3b
       1.6650771 -1.3602085 0.6379592 0.0051092473
000370 39 c5 04 3f 2d a5 35 bf 3f 21 67 bf 63 a8 67 3f
       0.5186344 -0.70955163 -0.90285105 0.9049131
000380 57 cc d6 3f 18 c0 15 40 8b e0 11 40 77 17 63 3f
       1.678111 2.3398495 2.27933 0.8870768
000390 15 87 0b c0 1f 91 56 40 ea 1d 90 3f d4 e0 17 bf
       -2.1801198 3.3526075 1.1259129 -0.59327435
0003a0 0b 0e 67 3f 57 86 24 40 d8 b0 c9 3f d8 24 47 c0
       0.902558 2.5706995 1.5757093 -3.1116238
0003b0 1d fe 09 bf 38 aa 83 40 b5 e9 6c c0 9e e9 26 3f
       -0.5390337 4.1145287 -3.7017643 0.6520022
0003c0 ea 62 2f bf ec 0f b4 3f dd 3a aa 3f 45 00 0f 40
       -0.68510306 1.4067359 1.3299214 2.2343915
0003d0 95 e3 aa bf d6 ed 69 c0 ef 63 d0 3f 5c 7e 44 3f
       -1.3350703 -3.6551414 1.6280497 0.7675531
0003e0 49 d9 47 3f 1e eb 98 bf 2a 48 72 bf 7e 16 46 bf
       0.78065926 -1.1946752 -0.94641364 -0.7737807
0003f0 d0 58 94 40 ce f5 ed 3f 48 07 90 3f 17 3c 12 3f
       4.6358414 1.8590639 1.1252222 0.5712294
